onnx/color_enhancement_inference-v1.2.0.onnx (onnx, 114827 bytes, 49 tensors)

CEnet.IMDBs.0.c1.bias f4 [16]
000000 04 7e 17 3d 7f 36 22 3d 28 36 4f 3d bd 35 8c bd
       0.036985412 0.039602753 0.050588757 -0.06846187
000010 cf 14 f5 3c 53 3b 73 bd a2 8d 55 bd 6b d6 93 3d
       0.029917149 -0.059382748 -0.052137025 0.07218631
000020 9d 86 0d 3d 94 c6 1f 3d b2 6c 77 bc 65 8b bc 3a
       0.034552205 0.03900774 -0.015101599 0.0014384805
000030 2e b6 b0 bb 8f 19 be 3d f8 d1 c5 bc d0 7c 86 bc
       -0.0053928113 0.09282219 -0.024147972 -0.016416937

CEnet.IMDBs.0.c1.weight f4 [16, 16, 3, 3]
000000 60 6f a1 bd 93 96 f0 3a b1 54 8a bd 52 ac 9f bd
       -0.07882571 0.0018355421 -0.06754435 -0.07796539
000010 ba ee 9b bd b6 aa 45 3d 15 09 25 bd ce cb 9e bd
       -0.07613893 0.048258506 -0.040291864 -0.077537164
000020 5d f7 8b bd c6 f8 11 3e 80 ed 09 3e 35 02 87 3d
       -0.0683429 0.14255056 0.13469505 0.06592218
000030 10 49 38 3d c7 13 d6 bc 8c 2d f4 3d 1e 46 1c 3d
       0.044991553 -0.026132477 0.1192275 0.038152806
000040 dc a1 cf 3d 6a 4e da 3d a7 6e 13 bd 98 14 96 bd
       0.10138294 0.106594875 -0.0359942 -0.07328147
000050 d2 76 22 3c c3 da 62 bd 6a 1d ce 3c 8b d8 0f 3d
       0.009916024 -0.05538441 0.02516051 0.03511862
000060 6f ad b1 3d 8d 46 30 bc 5a a2 fc 3c 4d 0a fb bc
       0.08675658 -0.010759008 0.030839134 -0.03064456
000070 97 39 a8 bb c4 c2 e9 3b 90 e1 2b bd 66 a1 67 bd
       -0.0051338184 0.0071338136 -0.04196316 -0.056550406
000080 16 f3 1e bd 23 54 43 bd 87 39 6d 3d 90 0a ab 3d
       -0.038806044 -0.04768766 0.05791619 0.08351624
000090 1f bb 86 3d 42 a2 3e bd b5 1a 19 3d 26 07 c1 bb
       0.06578659 -0.04654146 0.037378985 -0.0058907447
0000a0 6c 56 d3 bc 5a 11 ed bc e4 78 6a 3d c8 23 95 bc
       -0.025798045 -0.028938938 0.057244197 -0.018205538
0000b0 41 6b 83 bd f4 7d 04 3d 69 80 ab 3d 7a e8 8b bb
       -0.064169414 0.03234668 0.08374102 -0.0042696567
0000c0 7c f5 f0 3c 3e 47 87 3c 87 0b a9 3d 37 bf 1e bd
       0.029413931 0.016513463 0.08254152 -0.038756575
0000d0 75 9c 6b bd 0a 38 80 3b a3 62 ac bc f5 03 80 bc
       -0.057522256 0.0039129304 -0.021043127 -0.015626887
0000e0 48 39 6b bc ba ac 7d bc f2 ce 18 3c a6 c5 d6 3c
       -0.014356919 -0.015483076 0.009326683 0.026217293
0000f0 d7 f6 43 bd 28 d4 70 3d ee 1d 32 bd 5f d7 23 3d
       -0.047842827 0.058796078 -0.043485574 0.040000316
000100 6a 2e 53 3d a5 86 c9 bb 78 d3 ce 39 b3 91 a2 bc
       0.051557936 -0.006150084 0.00039448938 -0.019844865
000110 42 2f ab 3d 52 27 83 3d 66 0e d3 3c d5 35 95 bd
       0.08358623 0.06403984 0.025763702 -0.07285658
000120 2d b8 4e 3d f1 a2 9a 3d 28 74 7f 3d 4c 40 96 bc
       0.050468612 0.0755061 0.062366635 -0.018341206
000130 70 0b dc 3c 81 20 9c bd 6a f3 22 bd 00 6a b1 3c
       0.026860923 -0.07623387 -0.03978292 0.02165699
000140 a4 b1 8c 3d 44 bd c0 3d 6a 6b 69 bc f9 e4 c9 bb
       0.0686982 0.094110996 -0.014246801 -0.006161329
000150 3e 32 e2 3c 35 a5 f0 3b 35 61 58 bd 04 72 00 bc
       0.027611848 0.007343913 -0.05282708 -0.007839683
000160 8c 24 89 bc e1 88 12 bd f1 62 ca 3c 88 ae df 3d
       -0.01674106 -0.03577507 0.024705382 0.10921961
000170 e2 29 45 3d 64 97 cd 3c 80 89 c1 bc a1 a7 a0 3d
       0.048135646 0.025096603 -0.023625135 0.07844473
000180 9f ad 96 3b 87 cb ac bc 10 37 85 3d 66 93 26 3a
       0.004598334 -0.021093143 0.06504643 0.00063543615
000190 36 c5 f1 3c b3 ed 21 3d b6 ec ee 3c 6c 8f 0e bc
       0.029512983 0.03953333 0.029165607 -0.008701187
0001a0 c6 0a 42 3b 50 f1 0b bc 1b 64 b9 3d a0 0a 97 3b
       0.0029608472 -0.00854142 0.09052297 0.004609421
0001b0 5f 89 38 bd 7d 96 ba 3d 3b 5f bb 3d 64 d5 97 3d
       -0.045052882 0.091107346 0.09149023 0.07413748
0001c0 4a bb f1 3d 5b 3d 5e 3d 40 06 aa 3c 23 d0 2b 3d
       0.11803301 0.054257732 0.020754933 0.04194654
0001d0 80 e5 ce 3c 23 5a f4 3c b4 64 0d bd ca 0b 73 3c
       0.025255919 0.029828137 -0.034519866 0.014834354
0001e0 5a 33 64 3d 08 42 2d bc c5 f8 d1 bb 08 13 6a 3c
       0.055713035 -0.010574825 -0.0064078295 0.014286764
0001f0 2f 8d 6d bd d2 5d 76 bd b5 06 54 bd a0 87 87 3c
       -0.05799597 -0.060148068 -0.05176421 0.016544163
000200 4a 6b cc bd 85 5a 18 bd 59 c3 2e bd 04 3c 97 bd
       -0.09981401 -0.0371957 -0.042666767 -0.07384494
000210 32 4d e0 bb 4b 4e 44 3c 17 ef c3 bd a4 ee dd bc
       -0.00684514 0.011981557 -0.09567087 -0.027091332
000220 06 d9 79 3c 99 9f 4d bd fc 21 1c bc b2 a9 ae bc
       0.015249496 -0.050201032 -0.009529587 -0.021321151
000230 29 83 01 bd 7a 6e bb bc c9 b6 91 bd 8f 21 31 3d
       -0.031619225 -0.022879828 -0.071149416 0.043244895
000240 8b 86 5b bd 8a a2 38 bd c4 b1 72 3d 02 a1 c6 bc
       -0.053595107 -0.045076884 0.05925156 -0.024246696
000250 34 5b 8b 3d 5a 60 b0 3d 42 3c be bc e9 b1 b4 3c
       0.06804505 0.086121276 -0.023222093 0.02205749
000260 4c 73 98 3c 15 66 94 39 4d 5c 74 bd 59 17 d9 3c
       0.018609665 0.00028304817 -0.059658337 0.02650039
000270 8d 44 63 3d 7c 08 40 3d c9 13 60 3d 5a 1c bd 3c
       0.055485297 0.04688309 0.05470637 0.023084808
000280 6c a5 a5 bd c6 e9 ab bc ad f9 03 3b 07 ed 6c 3b
       -0.08088192 -0.020985495 0.0020137832 0.0036152021
000290 a7 13 a6 bc 38 c7 20 3d e0 56 a6 3d 7f fc 38 bd
       -0.020273043 0.03925249 0.08122039 -0.045162674
0002a0 50 3e 47 3d 4a cd a3 3d 07 a0 83 3d 6d 0f 6f bc
       0.04864341 0.0799814 0.06427007 -0.01459108
0002b0 5f 44 5f 3d af 35 16 3c a9 85 42 bd be 5e 16 bd
       0.054508563 0.009168073 -0.04749075 -0.036711447
0002c0 6e 8a 87 bd 6f f6 74 3b 43 63 17 bc 4c ac cb bc
       -0.066182 0.0037378331 -0.009239974 -0.024862431
0002d0 42 8a 52 3d 71 1f d6 bc b3 b2 d4 bb ca 5f 6a 3c
       0.051401384 -0.02613804 -0.006491029 0.014305064
0002e0 45 1f ca bc 1b 6f cd 3d 4f d0 89 3d 52 70 06 bd
       -0.024673114 0.10030957 0.06729185 -0.03282196
0002f0 c3 74 57 bc da bb a7 3d 43 bc 9d 3d 2c a1 4b 3d
       -0.013150397 0.08190127 0.07701924 0.049714252
000300 30 b1 42 bd 20 a7 89 3d f8 ce 83 bc f2 ec bb 3d
       -0.04753226 0.0672133 -0.016089901 0.09176053
000310 aa ea c9 bb 8d e1 8f 3d 07 f5 d8 b8 3a cd 81 bc
       -0.0061620073 0.07025442 -0.000103453225 -0.01584493
000320 b2 bb 97 bd df a0 81 3d 61 a6 7e bb b5 64 94 bd
       -0.07408847 0.06329512 -0.0038856494 -0.07245771
000330 0d 21 27 bd b7 07 bd 3c b9 ca b8 3c d7 c4 35 bc
       -0.040803004 0.023074968 0.022557603 -0.011094294
000340 cb 7e 68 3d 02 90 a8 3d 8b 91 0e 3c 09 81 9c 3d
       0.056761544 0.08230592 0.008701692 0.07641799
000350 08 96 dc 3c 23 9b 28 bd 39 84 20 3d ab 57 c9 3c
       0.02692701 -0.041163575 0.039188597 0.024577936
000360 8b 7d fb bb 62 19 cb 3d c0 36 95 3b 40 50 f6 3c
       -0.007674878 0.09916951 0.004553646 0.030067563
000370 ac 40 f3 3b 2e 96 06 3d 80 45 35 3d 4b 61 7b 3d
       0.007423481 0.032858066 0.044255733 0.061372083
000380 62 60 81 3c 4f dc 2b 3d 79 78 80 3d 89 d3 83 3d
       0.01579303 0.04195815 0.06272978 0.064368315
000390 1d c9 77 bd 8a 10 c8 3b 02 68 8f bd fe 6a 3d 3c
       -0.06049453 0.0061054872 -0.0700226 0.011561153
0003a0 1f 90 07 bc c6 11 84 bb d1 13 b6 bd d4 fc bd bd
       -0.008274107 -0.004030439 -0.088904984 -0.09276739
0003b0 8c 12 1f bc df 9b db bd 92 23 1d 3d f7 36 d1 bd
       -0.009709012 -0.107230894 0.038364 -0.10215562
0003c0 06 cf 0d 3d 1e ed 34 bc fe 23 79 bd be ba 19 3d
       0.03462126 -0.011042861 -0.06082534 0.037531607
0003d0 60 61 91 bc c6 15 e1 3c e0 f5 55 3d c6 25 57 3d
       -0.017746627 0.027476203 0.052236438 0.052526258
0003e0 e7 9f d7 3d e3 4e 6c bd 38 de 75 3d b9 2f 89 bd
       0.10528546 -0.05769242 0.060026377 -0.066985555
0003f0 f3 c1 9d bd f8 4f 44 bc 6f 1f 99 bc 46 44 bf bd
       -0.077030085 -0.011981957 -0.018691747 -0.09339194

CEnet.IMDBs.0.c2.bias f4 [16]
000000 90 cd b6 3c 52 4d b9 3d b7 82 1e bd 22 fe 89 bc
       0.022314817 0.09047951 -0.03869888 -0.016844813
000010 b7 98 c8 3d dc e5 99 3d 1d 04 9d 3d 2d 24 74 3d
       0.09794753 0.07514545 0.076668 0.059604812
000020 6e 7f 82 bd 2f b8 ac 3d 75 97 a6 bd 0c 61 72 bd
       -0.063719615 0.08433568 -0.08134357 -0.059174582
000030 57 9b 8e 3d bb 9e 0e 3d 73 e2 95 3d e2 f3 92 3d
       0.069632225 0.034819346 0.073185824 0.07175423

CEnet.IMDBs.0.c2.weight f4 [16, 12, 3, 3]
000000 f4 41 a5 3d 55 c1 81 3d 34 23 52 bd ea 3f 7c bd
       0.0806922 0.06335703 -0.051303104 -0.06158439
000010 1c 58 1f 3d 9d 0b 46 3d d1 b4 04 bd 1c cf 38 bd
       0.038902387 0.04835092 -0.032399002 -0.04511939
000020 ad b5 b8 bc af 36 e4 3d 31 2d 94 3d ba a5 4c bd
       -0.022547567 0.111432426 0.07235182 -0.049962737
000030 c2 3a b1 3d 45 b7 5f bd ad 8e df bc ff 33 8f bd
       0.08653785 -0.05461814 -0.027289713 -0.06992339
000040 61 81 ec bc c3 32 ef 3c 53 1c fa 3c ab 19 3d 39
       -0.028870286 0.02919901 0.030531084 0.00018034007
000050 8c 4b ab bd 66 36 52 bd b4 c1 59 3d 30 79 4d 3c
       -0.08364019 -0.05132141 0.053163245 0.0125411
000060 17 14 9a bc 55 4c 9f 3d fc f9 13 3d 7f 8f 01 bd
       -0.018808408 0.07778231 0.036127076 -0.03163099
000070 df 07 52 bd c7 9f 09 3d af 3d c2 bb 1f 65 88 bd
       -0.051277038 0.03359964 -0.0059277634 -0.06659912
000080 e5 36 69 3d fd 9a 00 bd 42 a0 ac bd 33 f3 81 3d
       0.056937117 -0.03139781 -0.08429004 0.06345215
000090 f2 95 ce 3d 3e fe b7 3d c8 0f d1 bc 0c ef 71 bd
       0.100871935 0.0898404 -0.02552022 -0.059065863
0000a0 bf 8f d7 3b 3c 25 c3 bd c0 55 b7 bd d8 b8 12 3d
       0.006578415 -0.09528586 -0.089519024 0.035820812
0000b0 65 dc 69 bd 6f 86 c3 3c e9 15 83 3d 30 6b 53 ba
       -0.05709495 0.023867814 0.064006634 -0.00080649834
0000c0 d3 20 db 3b bb db 6e bd e8 58 0f 3d 9f 63 b5 bd
       0.0066872626 -0.05831502 0.034996897 -0.08856892
0000d0 50 d4 18 3d 3f 28 93 3d 60 bd 94 3d 7f 6d 28 3d
       0.037311852 0.07185411 0.07262683 0.04112005
0000e0 6b 93 34 3d b8 99 06 bd 68 9c e3 3c 6e a1 c5 bc
       0.0440859 -0.03286144 0.027784541 -0.024124827
0000f0 3d 2c 7c 3d f6 32 90 bd d3 51 05 bd 67 be 89 bd
       0.061565626 -0.0704097 -0.032548737 -0.067257695
000100 a7 b1 83 3d 36 c7 6d bd 59 4b 7f bc da d8 2a bb
       0.06430369 -0.05805131 -0.015581929 -0.0026069195
000110 65 0d b3 3b 73 bd 41 3d 6a f3 9e bd 11 95 9f 3d
       0.0054642432 0.047299813 -0.07761271 0.07792104
000120 86 96 97 3d 4d 05 cd 3d 3a 4e f3 3d 92 48 d4 3d
       0.07401757 0.10010777 0.11880155 0.10365404
000130 bb 59 e7 3d 34 bf 5a 3d f7 25 94 3d a8 8b a8 3d
       0.112964116 0.053405 0.07233804 0.08229762
000140 12 d3 3b bc 00 ba 5f 3c 85 d6 b0 b8 60 68 b5 bd
       -0.011463897 0.013655186 -8.432291e-05 -0.088577986
000150 b7 73 ce 3b 5a f9 e8 3d e8 d5 b4 bc b5 00 e5 3d
       0.0063004154 0.11375685 -0.022074655 0.111817755
000160 b0 34 c4 bc f1 98 bc 3c 41 15 cd 3d 8f 88 d1 39
       -0.023950905 0.023022147 0.100138195 0.0003996533
000170 41 d5 c4 bc a7 11 ef bc bf 61 52 bc 37 7d 84 bd
       -0.024027469 -0.029183222 -0.012840687 -0.06469195
000180 5c 65 a9 3c f1 d5 8d bc 88 6f 78 3d 05 16 59 3c
       0.020678215 -0.01731393 0.06065324 0.013249879
000190 df c5 74 bd e4 0d 8f bd 92 d2 14 bd ba cb 67 bc
       -0.059759017 -0.06985071 -0.036333628 -0.014147693
0001a0 0d 38 ad 3d 53 ba 68 bc e8 74 6e 3c 45 c4 92 3d
       0.084579565 -0.014204579 0.01455424 0.07166342
0001b0 70 e2 2b 3d 3c b6 fc 3c eb 6c 34 bd 4a c5 9c bd
       0.041963995 0.030848615 -0.044049185 -0.076548174
0001c0 77 9e 8b bd 98 bc 92 3d 13 73 0b 3d 08 1a d1 bd
       -0.06817334 0.07164878 0.03404529 -0.10210043
0001d0 ba 7a c4 3d 18 58 05 3c 6d d7 8d bd 81 16 c1 3a
       0.09593721 0.008138679 -0.06925855 0.0014731438
0001e0 1e b0 f7 bb 5d e5 67 3d ce a7 c4 bd 8a f0 82 bd
       -0.0075588366 0.056615222 -0.09602319 -0.063935354
0001f0 fc ae d2 bc ae ed 8a bd e5 5c 93 3d b9 27 c9 3c
       -0.025718205 -0.06783615 0.071954526 0.024555074
000200 69 57 b1 3d a1 94 9f 3d 84 a0 dc 3c 5e f5 9f 3b
       0.0865925 0.077920206 0.026932009 0.004881545
000210 db 5e 41 bd 30 76 63 bd 47 89 3e 3b aa 2e 03 bd
       -0.0472096 -0.055532634 0.0029073523 -0.032026924
000220 67 ad 30 bd fb b2 8a bd cd e3 f7 bb 31 88 b6 3d
       -0.04313412 -0.06772419 -0.0075649978 0.08912695
000230 f2 84 3e bc e1 40 ff 3c 35 81 bd 3d 9d a6 36 bd
       -0.011628376 0.031158866 0.0925316 -0.04459249
000240 ea e1 a2 bd 9b 84 22 bd 48 a3 28 3d 60 36 bc ba
       -0.07953246 -0.039677244 0.041171342 -0.0014359467
000250 e7 0f e0 bc 42 2a c2 3c 9e 48 af 3c 9f 9a bf 3d
       -0.027351333 0.02370179 0.021396931 0.093556635
000260 1d 47 82 3d 51 bd 85 bd 9e 2b 21 3d 4a e1 af bd
       0.0636122 -0.0653025 0.039348237 -0.08587892
000270 51 eb d3 3b d9 fb 8d 3d 59 fa 49 bd d9 4d 1a bd
       0.006467261 0.06932802 -0.049311016 -0.037671898
000280 99 9d 66 3d 12 32 ca 3c 51 1f a9 bd 79 42 0e bd
       0.05630264 0.024682079 -0.08257926 -0.034731362
000290 8a 2e 58 3d b4 ff 38 3d 59 ce 2c 3d 31 1f c0 bd
       0.052778758 0.045165733 0.042188976 -0.09380949
0002a0 5f ff fd ba b1 f1 ee bd 43 8d c3 bc 09 a2 59 bc
       -0.0019378475 -0.11667193 -0.02387107 -0.013283261
0002b0 be 82 8a bc a2 c1 9e ba 9e a1 17 3d 54 45 34 3d
       -0.016908046 -0.001211215 0.037019365 0.04401143
0002c0 e4 11 4d bd ff 27 86 bd f1 28 de 3c 5a 74 a0 bd
       -0.05006589 -0.065505974 0.027119132 -0.07834692
0002d0 5a 05 6d 3d 00 85 02 3e 8d 29 45 bc 8e ec df ba
       0.05786643 0.12746048 -0.012033832 -0.0017084049
0002e0 a4 5b d3 3d f9 65 97 3c f9 c5 13 3d 37 ae 12 bd
       0.103202134 0.018481242 0.036077473 -0.035810675
0002f0 4e e5 86 bc e2 b8 5d bd 29 cc 96 3d e4 32 15 3d
       -0.016466763 -0.054131396 0.07363159 0.036425486
000300 fa 3d 87 3d 3a 50 35 bd 73 ec 45 3d 15 27 ca 3d
       0.06603618 -0.044265963 0.0483212 0.098707356
000310 e6 c6 b5 3d bc 09 17 3d 62 14 b1 3d 83 86 dd 3d
       0.088758275 0.036874518 0.08646466 0.10816672
000320 e5 50 19 3d c1 7f cf bc 37 3d 2f bd d0 24 4f 3c
       0.037430663 -0.025329472 -0.04278299 0.012643054
000330 7f b2 f0 3c 62 66 5f 3d 04 50 c1 3d 91 31 96 bd
       0.029381989 0.054541 0.0943909 -0.07333673
000340 ec 0e 9e 3d 2b 38 f3 3b e6 f1 99 3d dd 96 bc 3d
       0.0771769 0.007422467 0.075168416 0.092084624
000350 1c b6 1c bd b4 20 1d bd c2 d4 9d 3b 27 d9 d1 bb
       -0.03825961 -0.038361266 0.0048166225 -0.0064040604
000360 81 29 74 3d f7 94 34 3d 9a 97 b9 bd a6 f1 0a 3c
       0.059609894 0.044087376 -0.09062119 0.008480465
000370 2d 27 2d bd 47 b0 2d bd a8 cd a7 bd 19 bc d0 3c
       -0.04227369 -0.04240444 -0.08193523 0.025480317
000380 25 dc 58 3d 97 84 36 3d 82 11 4b bd d3 c7 40 3a
       0.05294432 0.04456004 -0.049577244 0.0007353995
000390 01 df 92 bd 4f 37 ef bc ef 1e 01 bd 88 3c 69 3d
       -0.07171441 -0.029201178 -0.03152364 0.056942493
0003a0 c5 0e 11 3c 4f 7c a1 bc 21 87 7d 3d a3 48 8a 3d
       0.008853619 -0.019712595 0.061896447 0.067521356
0003b0 1b 9a 14 3d 79 5e 73 bc ea b8 92 3d 44 75 4f 3d
       0.03627978 -0.014854067 0.07164176 0.050648943
0003c0 72 2a 86 3d 6a 38 16 3d 53 c6 54 3d ac a2 7b bb
       0.065510646 0.036674894 0.05194695 -0.003839652
0003d0 01 84 08 bb 33 fd 54 bd 91 a8 9a 3d 95 41 4f 3d
       -0.0020830634 -0.051999282 0.07551683 0.050599653
0003e0 c9 2b 19 bd 9f 10 77 bd 98 2d ea 38 4b 08 b0 3d
       -0.037395272 -0.060318585 0.00011166482 0.08595332
0003f0 e8 e9 14 3d d8 ee a4 3b 9d 40 4e bd 5a f3 54 3d
       0.036355883 0.005033355 -0.05035459 0.05198989

CEnet.IMDBs.0.c3.bias f4 [16]
000000 dd 71 07 3d ea b5 b4 3d ae 62 24 bd 0c ec 5d bd
       0.033067573 0.0882376 -0.04013317 -0.05418019
000010 ad fd 5d 3c b0 d2 1f 3d ca b3 03 bd c0 23 b3 3d
       0.013549251 0.039019287 -0.032153882 0.08747053
000020 3f 66 42 3c b6 3f b0 3d af 5b 57 bd 79 0d 36 bd
       0.011865198 0.08605902 -0.05257767 -0.044446442
000030 05 e9 e1 bc a7 8b 7f bd bc 02 02 bd 08 88 95 bd
       -0.027576933 -0.062389042 -0.03174089 -0.073013365

CEnet.IMDBs.0.c3.weight f4 [16, 12, 3, 3]
000000 82 b9 56 3d 51 5b 98 3c 13 6e 0a 3d ae fd 9d 3b
       0.052423008 0.01859823 0.03379638 0.0048215007
000010 37 43 cc 3d 4a cd 83 3d 1e 4b 99 bb 5c 20 b7 3d
       0.09973758 0.0643564 -0.004678144 0.08941719
000020 c1 8c 9e 3d be f9 b6 3d 3b a8 f4 3d 1f 28 f4 3d
       0.077416904 0.08934353 0.1194615 0.11921715
000030 c2 65 52 bd cd 63 d5 3d 20 65 15 bd 7a 2a 39 3d
       -0.051366575 0.10419426 -0.036473393 0.045206524
000040 c4 bf 6f bd f2 98 9b bc 96 e8 84 3c 5c 81 0f bd
       -0.05853249 -0.018993828 0.016224187 -0.035035476
000050 fc ca 87 bd ea 3c 4b 3d af 3e 2a bd 7f fa 63 bc
       -0.06630513 0.04961864 -0.041563686 -0.013914703
000060 03 35 86 3d d1 2a f9 bc bc 55 07 3d df fe df 3d
       0.0655308 -0.030415924 0.033040747 0.10937285
000070 04 2a 93 bc 8a cf a1 bc 0a fe 9a 3d 61 da 80 3d
       -0.01796437 -0.019752283 0.07567985 0.062916525
000080 f1 c1 b4 3d 15 d0 0d bd af b8 14 bc a9 7f 13 bc
       0.08826054 -0.03462227 -0.009077235 -0.0090026045
000090 ad a4 12 3d 86 4e 8d 3d c0 28 bf bd 16 f9 6f bc
       0.03580158 0.06899743 -0.09333944 -0.014646789
0000a0 ae 38 78 bd 7c 21 be 3c 0b b4 4d 3d a6 d9 3d 3d
       -0.06060093 0.023209326 0.05022053 0.046350144
0000b0 e8 09 56 bd 1d 45 89 bc d1 55 93 bd 78 ee 72 3c
       -0.05225554 -0.016756589 -0.071941026 0.014827363
0000c0 d4 b6 5b 3c d9 2f 61 bc 3f f4 86 3d ce 2f 9f bd
       0.013410289 -0.013744318 0.06589555 -0.0777279
0000d0 d4 44 3c 3c 62 5f a2 bd 36 5b 60 bd ad 27 1a be
       0.011491019 -0.07928349 -0.054774486 -0.15054198
0000e0 d3 b0 56 be ba cc 0d bd 92 de 1a be 98 d1 fe bd
       -0.2096589 -0.03461907 -0.15123966 -0.124423206
0000f0 09 b6 9a bd 95 b8 68 bd 79 07 a9 bd a7 2f 9c bd
       -0.07554252 -0.056816656 -0.082533784 -0.076262765
000100 9c 76 c7 3d 5b cb 9b bd ba ff f0 bb cb 09 b0 3d
       0.0973942 -0.07607146 -0.0073547037 0.08595618
000110 3b 4f 76 3c b5 3c bb bb 6d 77 f8 3c 95 a2 2a 3d
       0.015033538 -0.005714024 0.030330384 0.041658957
000120 c9 62 1d 3d b8 78 f9 bc 95 71 ed 3d 02 c8 33 3d
       0.038424287 -0.030453071 0.1159393 0.043891914
000130 7f e7 64 3d 72 41 60 3c 67 c2 49 bd 43 a7 11 3c
       0.055884834 0.013687478 -0.049257662 0.008889976
000140 96 02 ae 3d 81 22 bb 3d a7 f5 ff 3c 03 82 72 3d
       0.08496587 0.091374405 0.031245066 0.05920602
000150 cf 87 ba bb d2 91 c4 3d f1 d0 fc bc c9 1d 39 3d
       -0.005692459 0.095981255 -0.03086135 0.04519442
000160 15 b3 96 3c 42 42 e8 3d b4 ca ac 3c 4b 39 c4 bd
       0.01839594 0.11340763 0.02109275 -0.0958124
000170 e3 4e 34 3d a8 27 5b bd ec d3 d5 bd 87 8e b3 3d
       0.044020545 -0.053504616 -0.104408115 0.08767419
000180 93 9d 05 bd ff 1a cc bd 62 a6 18 bd f8 9c 9d 3d
       -0.032620978 -0.099660866 -0.03726805 0.07695955
000190 7a 06 62 3d c6 da 7c 3c 5c f3 80 3d 5c df 91 bc
       0.055181958 0.015433019 0.06296417 -0.017806701
0001a0 dd 40 c8 3d a1 60 09 bd 4a b9 8c bd ad e8 ab bd
       0.09777997 -0.033539418 -0.068712786 -0.08393989
0001b0 d0 16 b9 bd 71 85 3a ba aa 31 95 3d 6e c1 9a 3d
       -0.09037554 -0.0007115221 0.07284863 0.07556425
0001c0 37 41 d8 3b f2 cd 45 3d 83 76 bd bc 49 a7 31 bd
       0.006599571 0.048292108 -0.0231278 -0.043372426
0001d0 e1 35 7e 3d 12 ed 47 bd cd c8 69 bd 36 a0 2f 3d
       0.0620631 -0.048810072 -0.057076264 0.0428774
0001e0 92 e4 c6 bd ab 7d 22 3c 9d 53 81 bd 1f af 69 3d
       -0.09711565 0.009917657 -0.06314776 0.057051774
0001f0 f9 51 2c 3d c1 ac a4 bb ca 9c 83 bd 0a 61 79 3d
       0.042070363 -0.0050254767 -0.064263895 0.06088356
000200 f2 7e 86 3d 4d 8c b8 bc 48 e4 52 ba 14 da 89 3c
       0.06567182 -0.022527838 -0.0008044881 0.01682762
000210 96 a9 84 3d ef 59 8b 3d 20 19 a2 3d 5a a7 88 ba
       0.064776585 0.06804263 0.079149485 -0.0010425851
000220 a4 11 e8 3c d3 a7 21 bd f6 60 18 bc 6c 75 06 bc
       0.028328724 -0.03946669 -0.009300461 -0.0082067065
000230 8b c4 96 bd 9c 16 0a 3d 98 d5 eb bc f1 dd 18 3d
       -0.07361706 0.03371297 -0.028788373 0.037321035
000240 b1 bf 48 ba f4 25 d5 bc 1f 0d 9e 3d 7d 9b ef 3b
       -0.0007657959 -0.026019074 0.077173464 0.007312237
000250 94 c1 fe 3c 25 4a af 3d 15 fb be bb 6f 2d fb 3b
       0.031098165 0.08559064 -0.005828271 0.007665328
000260 f7 0a 80 bd 5d a8 3f ba 59 cd c9 3d d9 55 2e 3d
       -0.062520914 -0.000731116 0.0985362 0.04256234
000270 33 11 80 bd 22 4c d6 3b a2 b2 53 bd 9b 80 7e 3d
       -0.062532805 0.0065398375 -0.05168403 0.062134366
000280 21 9e a9 3d 05 63 a3 3d a9 ed 9b bc 7a 4d c0 3d
       0.08282114 0.07977871 -0.019034224 0.093897775
000290 ed 2e 2e 3e 57 64 16 bd 1c a3 d3 3d 37 3e eb 3c
       0.17010088 -0.036716785 0.10333845 0.02871619
0002a0 e9 14 3f 3d a4 7c ba 3c 02 85 49 bd a0 ce 48 bd
       0.0466508 0.022764511 -0.04919911 -0.049025178
0002b0 31 37 70 bb be 2b 08 3d b4 90 7f 3c 0f 27 65 bd
       -0.003665399 0.03324484 0.015598465 -0.055945452
0002c0 1f ec 28 bd 54 1e 55 bd 6e f0 9f 3b f1 8f 96 3d
       -0.041240808 -0.052030876 0.0048809564 0.073516734
0002d0 03 c6 1b 3c f7 c5 09 bd c8 13 2e bd d1 d4 28 3c
       0.009507659 -0.03363606 -0.042499334 0.010304646
0002e0 65 2b b9 3c 10 73 7c bc 60 00 12 bd 4d 78 a3 bd
       0.0226037 -0.015408292 -0.03564489 -0.0798193
0002f0 9d 11 ad bd b8 6b 23 3d 94 3e b9 bd b1 ed 64 3d
       -0.08450625 0.03989765 -0.09045139 0.055890743
000300 b9 a2 15 3d a7 85 94 bd 7a 81 00 3c 71 b3 34 3d
       0.036532138 -0.07252055 0.00784337 0.04411644
000310 94 6e 78 3c 70 fe 46 3d 11 40 80 bd e8 8d 60 bd
       0.015163083 0.048582494 -0.0626222 -0.054822832
000320 d9 5e f3 bc 5a 85 fc 3c 02 61 c2 3d 75 3c d0 3c
       -0.029708313 0.030825306 0.09491159 0.025419453
000330 84 da a5 bb 00 d6 de 3c d0 13 ab bd 34 c7 14 3b
       -0.0050614495 0.027201653 -0.08353388 0.0022701742
000340 fa db 9b bd d8 d9 45 bd f4 e7 2b 3d 88 7e c7 bd
       -0.076103166 -0.048303455 0.041969255 -0.09740931
000350 7e 75 86 bd 53 b4 12 b9 d6 fe bf bd 4b 3e 84 3d
       -0.065653786 -0.00013990821 -0.09374778 0.06457194
000360 55 dd 25 3d cf 55 93 3b 83 61 15 3b 81 51 a2 bc
       0.04049428 0.004496313 0.0022793717 -0.019814255
000370 d4 41 b1 bb 97 28 84 3a d5 2f 9b 3d 2b d8 6c 3d
       -0.0054094587 0.0010082897 0.075774826 0.05782334
000380 bf cb a6 3d 62 2e e1 3d e8 6a 65 3c 0e 1f 37 bd
       0.0814433 0.10995175 0.014002539 -0.04470735
000390 73 75 05 3e af ca 23 3e 1e bb a0 bd 5e ed 88 3c
       0.13033085 0.15995286 -0.0784819 0.016714748
0003a0 5c b5 a7 3d f7 9d 7c bd 07 f8 d6 bd b1 02 06 3c
       0.081888884 -0.061674085 -0.10496526 0.008179353
0003b0 2d 5b 30 bc 87 3b f7 3c 2d 10 43 3d 5b 9d 68 bd
       -0.0107639255 0.030179752 0.04762285 -0.05679069
0003c0 73 de 16 3d 9d 2d 9c bd 07 0a 6c bd e0 07 44 bc
       0.036833238 -0.076258875 -0.05762675 -0.011964768
0003d0 05 bf bc 3c 9e f7 55 3d 41 01 90 bc f0 58 e1 3c
       0.023040304 0.0522381 -0.017578723 0.027508229
0003e0 1a 64 a7 3d b5 63 9e 3d a8 a2 5b 3d cb 98 4a 3d
       0.0817339 0.07733861 0.053621918 0.04946212
0003f0 74 9a 86 bd ba 42 94 3a a5 35 68 bd 49 37 51 bc
       -0.06572428 0.001131139 -0.056691784 -0.012769529

CEnet.IMDBs.0.c4.bias f4 [4]
000000 f9 08 12 3d f9 f5 ad bd c9 da 1f 3d 76 6c 2b 3a
       0.03565309 -0.08494181 0.03902701 0.0006539294

CEnet.IMDBs.0.c4.weight f4 [4, 12, 3, 3]
000000 f3 b2 62 3d 22 18 f1 3d 12 bf d5 3c e3 fe 21 3d
       0.05534644 0.11772181 0.026092086 0.03954972
000010 e8 86 89 3d 5f f1 a7 3c e0 b0 66 bd 43 23 98 3d
       0.067151845 0.020500837 -0.056321025 0.07428601
000020 c6 c9 27 3d 1b eb a7 bd 36 50 a6 3d 58 ac 5b 3d
       0.04096391 -0.0819914 0.08120768 0.053631157
000030 aa 86 bf 3c 5e 98 03 3d 26 26 c8 3c 14 74 b1 3d
       0.023379643 0.03212773 0.024432253 0.08664718
000040 ef ab 08 3c cd 0c 88 3d c6 4d a5 bd f9 99 32 bd
       0.008341773 0.066430666 -0.08071475 -0.04360387
000050 d9 1f d7 bc ab b6 85 bd c7 63 f5 bc db 29 71 bd
       -0.026260303 -0.06528982 -0.029954804 -0.058877807
000060 81 98 0d 3c dd b3 d4 bd 61 ca 04 3d 89 a3 78 bd
       0.008642317 -0.10385869 0.032419566 -0.060702834
000070 d2 5e b8 3c cb ad 8b bd eb f4 aa bd 56 c3 be bd
       0.022506151 -0.06820258 -0.08347496 -0.09314601
000080 ba cc 85 bd d8 86 da bb 58 7f 28 bd 37 19 c4 3b
       -0.06533189 -0.0066689067 -0.04113707 0.005984451
000090 02 0d c0 bc 44 78 ca 3d 86 f9 77 3d 78 14 ca 3c
       -0.023443703 0.0988622 0.0605407 0.024667963
0000a0 bf 59 20 3c 64 e6 a7 bd 35 7e 82 3d 9d 7a aa 3d
       0.009787022 -0.081982404 0.06371728 0.08324168
0000b0 82 98 18 3d 50 62 93 bd ab 9c a5 bd d1 35 f8 bc
       0.037254818 -0.07196486 -0.08086523 -0.0302991
0000c0 c8 63 0a 3d 95 53 28 3c e2 48 c7 bc 31 79 9e bd
       0.033786565 0.010273834 -0.024326745 -0.07737959
0000d0 55 5d 50 bd ae 5f 62 bd 94 f1 57 bd bc e1 a9 bb
       -0.05087026 -0.05526703 -0.05272062 -0.0051843803
0000e0 2c 50 39 bb cb af 55 3c 0f 5b 9c bd ee aa 82 bd
       -0.0028276546 0.013042401 -0.076345555 -0.063802585
0000f0 c8 78 64 3c ea 11 5a 3c c7 74 4e bd 27 53 eb 3d
       0.013944812 0.013309935 -0.050404336 0.114904694
000100 9f 5e f7 3c 77 df 16 bc b1 1a 0f 3e 78 60 c3 3d
       0.030196486 -0.009208552 0.13975026 0.09539884
000110 61 76 0b 3d a1 50 8d 3d be 44 99 bc 6a ba 48 bd
       0.03404844 0.06900144 -0.018709537 -0.049005903
000120 c1 3a 79 bd 54 99 bc bc 76 ce f2 ba bd 8e 30 3d
       -0.060847048 -0.023022331 -0.0018524665 0.043104876
000130 05 2e 83 bd a5 00 66 3d 25 12 a4 bd 92 11 9f bd
       -0.06405262 0.05615296 -0.08011273 -0.07767023
000140 86 72 42 3d 2d 8f 9a bd 0e ca 1e bd ad 9f f1 bd
       0.0474725 -0.0754684 -0.038766913 -0.11798034
000150 d0 f4 a2 bd f2 45 ea bd 53 6a a0 bc 64 f9 2a 3d
       -0.079568505 -0.11439122 -0.01958195 0.041741744
000160 9b 3b 81 bc e8 47 84 bc 2d 90 a8 3d f3 33 f4 3d
       -0.015775492 -0.016147569 0.08230624 0.11923971
000170 35 0c c6 3c 7a a0 4b 3d 75 3a f4 3d f0 a5 79 3c
       0.024175743 0.04971359 0.11925212 0.0152373165
000180 bd 31 93 bb 4a ad c4 3d 45 43 ea 3d e1 34 a0 bd
       -0.0044920132 0.09603365 0.11438612 -0.07822586
000190 7c ea 0c 3d 59 7d b2 3d da 08 cb bb d5 e4 9d bd
       0.03440331 0.087153144 -0.0061961235 -0.07709662
0001a0 22 31 5b 3d a8 6e ca bc ac 2b 59 bc 1a e8 8a bd
       0.053513654 -0.024710968 -0.013255041 -0.06782551
0001b0 6c 97 d5 3d 65 72 3c 3d b4 32 a2 bc 8b 6e 96 bc
       0.10429272 0.046007533 -0.019799568 -0.018363258
0001c0 3b f9 70 bd 93 b1 9c 3c 9d 86 88 bc 6a 91 5a bd
       -0.058831435 0.019127643 -0.016665751 -0.053361334
0001d0 58 f1 f2 bc e1 6d b5 3c 4c 4f d1 bd 56 4f 82 3d
       -0.029656097 0.02214712 -0.10220203 0.063627884
0001e0 23 db b2 bb 03 b2 bd bd 1d 8d 8a 39 a6 20 f4 3c
       -0.005458252 -0.09262469 0.0002642655 0.029800724
0001f0 36 46 99 bd 6c ce 9d bc 01 63 ec bd 49 97 d0 3b
       -0.07484095 -0.019263469 -0.11542321 0.006365691
000200 e7 34 80 3c ac 67 bd 3c d1 0b 01 be a5 d8 01 be
       0.015650226 0.023120724 -0.12602164 -0.126803
000210 da 5a 86 3d 79 54 b9 3c 23 94 97 bd f6 f7 39 3d
       0.06560297 0.022623288 -0.07401302 0.04540249
000220 51 95 21 bd cf 69 3a 3c 6d d3 3b bd 18 88 8d bc
       -0.03944904 0.011377766 -0.04585593 -0.017276809
000230 43 d4 2f bd 79 1b 91 bd 94 27 2a 3d c4 e7 32 bc
       -0.042927038 -0.07085318 0.04154165 -0.010919515
000240 84 f7 9f 3d 35 82 af 3c 89 b9 47 3b 07 28 89 3d
       0.07810882 0.021424392 0.0030475578 0.06697088
000250 d7 2a f7 3d c1 7d 8c 3d 68 8a d6 3d ac a8 89 3c
       0.12068718 0.06859923 0.10475618 0.016804062
000260 44 83 d6 3d 87 09 b7 bc a6 82 c4 bd b5 88 32 bc
       0.10474256 -0.02234341 -0.09595232 -0.010896851
000270 65 8e 38 bd bc d8 22 3c 0c a5 71 bd b9 00 67 bc
       -0.045057673 0.009939369 -0.05899529 -0.014099293
000280 ee f2 c6 bd 27 a8 60 bd b2 47 a1 bc e4 86 11 3d
       -0.09714304 -0.054847863 -0.019687507 0.035529032
000290 18 66 5c 3d cb 1e 4c 3d 3f 55 a8 bc a4 c6 a4 bd
       0.0538083 0.049834054 -0.020548461 -0.080457
0002a0 85 42 ac 3b ef a2 a7 bc e5 31 80 3c 5b c2 a3 3c
       0.005256953 -0.020463435 0.015648792 0.019990137
0002b0 21 a4 2e 3d 66 63 ec bc 7b c8 91 3d 68 d6 b5 3d
       0.042636994 -0.02885599 0.07118317 0.08878785
0002c0 e0 ea e2 3d fe f3 59 3d f5 27 45 3d 8f d5 3b bd
       0.11079955 0.053211205 0.04813381 -0.045857962
0002d0 37 5f 1d 3d 2d c4 4c bd a9 ec 07 bd 5a ff 70 3d
       0.038420882 -0.049991775 -0.03318468 0.058837272
0002e0 40 d5 95 3b dc 74 b6 3d 1d 7e da 3c 09 9b 89 3d
       0.0045725405 0.08909008 0.026671464 0.06719024
0002f0 e5 f0 c9 bc 4c f9 08 3d d7 f1 27 bd 03 dd 9f bd
       -0.024651 0.033440873 -0.04100212 -0.078058265
000300 15 bc bb 3c 0b 42 c4 bc b9 c3 ce bd fa 38 e6 3c
       0.022916833 -0.023957273 -0.10095925 0.02810334
000310 c0 29 83 bd 40 86 43 bd 8e f7 b5 bc ea e0 12 ba
       -0.064044476 -0.047735453 -0.02221277 -0.0005602973
000320 48 44 d1 3d 6e b8 ce 3d 56 75 dd 3d 88 35 0b bd
       0.10218102 0.10093771 0.10813396 -0.0339866
000330 8f 50 8d 3b f0 a6 75 3d 88 97 61 bc bc e2 65 3d
       0.004312582 0.059973657 -0.013769038 0.056124434
000340 29 36 60 3d 4d 4c d0 3c 51 bd a5 bd 11 a2 5f 3d
       0.05473915 0.025427008 -0.0809275 0.054597918
000350 18 63 ca 3c b9 a6 75 3d 39 3a 4c 3c 1a b7 c3 3d
       0.024705455 0.059973452 0.012465053 0.09556408
000360 23 aa c3 3c af 22 4b 3d e8 1b 18 3d 87 9a be bc
       0.023884838 0.049593624 0.03713599 -0.023267044
000370 d0 ac a1 bd d9 28 83 3d 61 02 42 3d 27 46 b0 bc
       -0.078942895 0.064042754 0.04736555 -0.021517826
000380 23 41 b2 bd 2e e4 b8 bc 78 d6 45 bd 67 ab 64 3d
       -0.0870383 -0.022569742 -0.048300236 0.055827525
000390 e4 ee 97 3d 07 4c f8 3c ca 64 e5 bc b8 10 06 bc
       0.07418612 0.03030969 -0.028002162 -0.008182697
0003a0 93 be 14 bd db 5f cf bd 36 0e dd bc a5 62 c8 bd
       -0.03631456 -0.10125705 -0.026984315 -0.0978444
0003b0 f8 c6 59 bd 5c 85 11 bd 8c 3f f3 bd 5e da fc bd
       -0.053168267 -0.035527572 -0.11877355 -0.12346338
0003c0 90 1c 25 3c 28 73 3c bd 63 aa 6a bd 4b 10 1e 3d
       0.010077611 -0.04600826 -0.0572914 0.038589757
0003d0 eb 19 8f bd e4 ed ba bd 30 ad ca 3c 2e 72 6d 3d
       -0.06987365 -0.09127405 0.024740785 0.05797022
0003e0 42 d3 87 3d 27 1f ba bd 2a a1 69 3d d3 e1 0d bc
       0.06632091 -0.09087973 0.057038464 -0.008659798
0003f0 ae 0d 79 3d b5 e6 1f bd 85 cf 05 3e 0a f3 48 3d
       0.06080406 -0.03903838 0.13067444 0.049059905

CEnet.IMDBs.0.c5.bias f4 [16]
000000 e3 37 77 be 5c b5 78 3e f0 64 69 3d b0 8c e5 bd
       -0.24142413 0.24287933 0.056981027 -0.11208475
000010 7f 50 0a 3c 6f 8d 46 3e 3c b5 a0 3c 86 68 e4 bd
       0.008442043 0.1938989 0.01961767 -0.11152749
000020 7b e0 99 3d 68 44 bc 3d 31 8b 32 3e bc f2 c1 bd
       0.075135194 0.09192735 0.1743591 -0.09470126
000030 58 68 d0 bd 5c 08 8e bc d0 64 56 3e ff 89 30 3d
       -0.10176152 -0.01733797 0.20936894 0.043100353

CEnet.IMDBs.0.c5.weight f4 [16, 16, 1, 1]
000000 ad 04 2a 3e dd c2 7c be 38 84 73 be 33 02 98 bd
       0.16603346 -0.2468371 -0.23780906 -0.074222945
000010 52 32 2d 3e 6e c0 71 3e d9 46 98 3d 19 36 33 3e
       0.16913727 0.23608562 0.07435388 0.17501105
000020 16 d4 c6 3c 86 ac 13 3e a6 72 cd 3d 43 d3 7c 3e
       0.024271052 0.14421281 0.10031633 0.24689965
000030 7b b7 40 3e 7d 10 68 be 1e 44 13 be bf 72 3f 3e
       0.18819992 -0.2266254 -0.14381453 0.18696116
000040 8c 81 8c 3e 4c ff 63 3e a6 8f 7d 3e 0e 7a 30 3d
       0.27442586 0.22265357 0.24761829 0.04308515
000050 1c a0 33 3e a1 5f 31 3e 57 87 11 3e 3e 2f 8e 3c
       0.17541546 0.17321636 0.14211784 0.017356511
000060 a4 b9 89 3e aa 47 01 be 66 9f e7 3c 59 38 ed 3d
       0.26899445 -0.12624994 0.02827425 0.11583013
000070 c6 34 38 be 55 1a 46 3e 7b b8 45 be 9f 72 30 be
       -0.17988881 0.19345982 -0.19308655 -0.17231224
000080 34 1a 5c be 8b 0d 28 3e 05 94 cc bd 25 c4 3f be
       -0.2149437 0.16411416 -0.0998917 -0.18727167
000090 f3 a9 ca 3d e1 02 f5 bd 43 59 23 be 9d b1 c9 bd
       0.098956965 -0.1196344 -0.1595202 -0.0984833
0000a0 65 c9 3c be f3 b9 6a be 58 33 8b 3d 32 bc ac 3d
       -0.18436201 -0.22922496 0.067969024 0.08434333
0000b0 07 85 81 3e 43 84 ea 3c db 8c 86 3e ad c3 66 bd
       0.25296804 0.02862752 0.2627934 -0.056338955
0000c0 0e d5 50 3d 6b 70 2b be 04 c0 3f 3e d7 a6 6c 3e
       0.050984435 -0.16742103 0.18725592 0.2311052
0000d0 89 78 e5 bd 6e 96 49 3d d9 71 86 bd 36 9e d5 bd
       -0.11204631 0.049215727 -0.065646835 -0.10430567
0000e0 02 f8 22 3c 84 ac ee 3d b4 22 6a be ac d2 1b be
       0.009946825 0.116539985 -0.228648 -0.15217084
0000f0 26 20 5a 3e 16 ad 82 be 74 f2 75 bd 01 8c 62 be
       0.21301326 -0.2552268 -0.060045674 -0.2212372
000100 aa 96 dc bd ae 9d fb bd 6d 93 fb 3d 78 3f 3d 3d
       -0.107709244 -0.122859344 0.122839786 0.046203107
000110 e1 54 4e 3e 7c 3d 37 3e 39 d6 83 3d 41 cc fd 3c
       0.20149566 0.17894548 0.06437344 0.030981185
000120 92 d7 81 3d 12 d1 95 3a 46 18 61 be fe 10 7a 3e
       0.06339945 0.0011430106 -0.21981916 0.24420545
000130 d4 fe 3f 3e af 32 17 3c 9e e8 22 be 27 8a b2 3d
       0.18749553 0.0092283925 -0.15909049 0.08717757
000140 e7 25 05 3e f3 af 09 3e 9b 3d 87 3e 2e 23 81 3e
       0.1300274 0.13446026 0.2641419 0.25222152
000150 15 3e 35 be 34 90 65 3e 38 9a 4e 3d b6 50 cb 3d
       -0.17699464 0.2241829 0.050440043 0.09927504
000160 bf 73 19 3e 80 92 0b 3e eb 21 19 3e 38 0a 2d 3e
       0.1498556 0.13630104 0.14954345 0.1689843
000170 0a e0 9e 3c 35 64 4f 3d 0f dd 2c 3e 7e 33 8f bc
       0.01939394 0.050632674 0.16881202 -0.017480608
000180 b6 9d f5 bd d7 51 38 3d 32 c3 3b 3e 19 03 93 bd
       -0.119929716 0.044999924 0.1833618 -0.07178325
000190 6a 71 07 3e f6 06 7c 3e bc c6 79 bc d1 89 06 be
       0.13226858 0.2461203 -0.015245136 -0.1313851
0001a0 1f 0a 88 be 9c fb 4b 3e 8f 50 c0 bd 09 da 61 be
       -0.26570222 0.199202 -0.09390365 -0.2205583
0001b0 be 2b 91 be 53 a1 cf 3c 2b 1f 15 3d 1f 48 3f 3e
       -0.28353685 0.02534548 0.036406677 0.18679856
0001c0 ee 2b 37 3e 0b ea 94 ba f8 e5 dd 3c 60 ad 3b 3e
       0.17887852 -0.0011361254 0.027087197 0.18327856
0001d0 eb 7b 0e 3e 5f a5 a1 bc b3 f4 8b 3e ea 67 25 be
       0.13914458 -0.019732175 0.27335128 -0.16152921
0001e0 2b aa 0f be 9e e7 35 be 66 d8 0b be 21 e9 a1 bc
       -0.14029758 -0.17764136 -0.13656768 -0.019764485
0001f0 45 45 26 3e 52 76 50 3e 62 02 24 3e e3 15 07 3e
       0.16237362 0.20357636 0.16016534 0.13191943
000200 e4 c4 12 3e a1 2d 0a 3e e0 66 09 bd f0 75 03 be
       0.1433292 0.13493969 -0.033545375 -0.12837958
000210 a8 20 7c bd a7 d1 e1 bd 3e 93 bc bd 8b 33 2f 3d
       -0.06155458 -0.11026316 -0.09207772 0.042773765
000220 1b e5 be bd 4f 56 16 3e 2c a1 42 be cd d6 d5 3d
       -0.09321042 0.14681362 -0.19006795 0.104413606
000230 df 4c 52 3e eb 22 9a 3b 3d ee 2b 3e 6f 23 cc bd
       0.20537136 0.0047038696 0.167901 -0.09967696
000240 49 ec 43 3c 79 31 41 be 07 ea 8c be fb a0 aa bd
       0.01195819 -0.18866529 -0.275223 -0.08331486
000250 ea c2 5c 3e 3a a6 67 3e 71 a0 79 be 3e f3 73 bd
       0.21558729 0.22622004 -0.2437761 -0.059558146
000260 72 ba 5f be 9f 04 44 3e f8 b3 03 3e 25 ea 84 bd
       -0.21848467 0.19142388 0.12861621 -0.06489972
000270 28 fa 84 bd 86 58 dd 3d 15 12 2f be 21 61 0a 3c
       -0.06493026 0.108079 -0.17096741 0.008446009
000280 f7 68 46 3e 36 d7 10 3e 5a b3 f0 bd 56 b6 e4 3d
       0.19375978 0.14144596 -0.117529586 0.1116759
000290 cd 05 f1 bd b8 ab 20 be a9 c7 f2 3d 85 6f 81 3d
       -0.117686845 -0.15690506 0.118544884 0.06320099
0002a0 d1 c4 2e 3e b1 e2 34 3d b2 a9 8f bd 4c b9 0b 3e
       0.17067267 0.044161502 -0.07014789 0.13644904
0002b0 0d 53 d4 3d 07 d5 21 bd a9 58 97 bd 88 5e ae bd
       0.10367403 -0.0395098 -0.073899575 -0.08514124
0002c0 ca 4a 9e bc e1 da 83 3e 81 e3 e4 bd a9 55 31 be
       -0.019322772 0.2575293 -0.111762054 -0.17317833
0002d0 5d 70 3d be f4 bc 1a bd b0 d8 83 3e 1e df 67 be
       -0.18499894 -0.037777856 0.25751257 -0.22643706
0002e0 ae 44 70 3d 13 ae f2 bd e3 d4 52 be b7 72 47 3d
       0.058659248 -0.11849608 -0.20589022 0.048693385
0002f0 fb c5 96 bc c2 6f 7b 3e c7 5f 0d bd 76 2a 52 3e
       -0.018404951 0.24554351 -0.03451517 0.2052401
000300 89 dd ec 3d 67 b0 bd 3d 1a e7 22 3e a6 bf df bd
       0.11565692 0.09262162 0.15908471 -0.10925226
000310 40 6d 08 be 35 bb 3a bc 0d 68 4d 3e 7c 77 6a 3d
       -0.13322926 -0.011397173 0.20059223 0.057242855
000320 79 a6 6b 3e 9f 49 ab bd bf 64 76 3e db 9a 94 bd
       0.23012723 -0.083636515 0.24061869 -0.07256099
000330 da 8b b1 3b 28 46 df bc 34 43 73 bd 40 69 11 3d
       0.005418283 -0.027255133 -0.05939026 0.035500765
000340 8b fb b8 3d 71 c6 49 be 45 2e 9d 3d 70 7c d1 bd
       0.09032353 -0.19704606 0.07674841 -0.10228813
000350 b9 91 24 be 8e 6c 28 3d ec 0e 4b bd 8c 45 6f 3e
       -0.16071214 0.04111915 -0.049574777 0.23366374
000360 fb 60 7c be c2 05 b8 3b 0d 40 0a 3d 20 19 8a 3c
       -0.2464637 0.0056159208 0.03375249 0.016857684
000370 e1 b4 69 bc 7e 38 ff bd 5c 2a 0d be a1 10 78 3d
       -0.014264316 -0.12461947 -0.1378569 0.060562734
000380 05 f1 c2 bd 71 08 05 3e 4a b7 40 be 21 c0 67 3e
       -0.09518627 0.12991501 -0.18819919 0.22631885
000390 bc f2 e8 3d b4 4b 34 bd 2a 28 53 3e d8 a5 84 be
       0.11374423 -0.04401751 0.2062079 -0.2590778
0003a0 7a e5 64 bd cf b3 2d be 46 bb b7 bd 62 54 19 3d
       -0.05588291 -0.16963123 -0.089712664 0.03743399
0003b0 4b 6f 4d bd a3 4c b9 bc d3 48 0d be cd 70 20 bd
       -0.050154965 -0.022619551 -0.13797311 -0.039170075
0003c0 ac d9 19 3c e4 10 53 be b0 61 00 3e 23 bc 19 3e
       0.009390276 -0.20611912 0.12537265 0.15013175
0003d0 f4 65 47 3e 9d a5 a5 bd fc df 06 3e 1a b7 39 3e
       0.19472486 -0.08088229 0.13171381 0.18136254
0003e0 04 3c 79 3c 4e bc 85 3d 38 f1 2d bb 3f c4 1a bd
       0.015212063 0.06530057 -0.0026541483 -0.03778481
0003f0 61 de 1a 3e 83 00 d0 3d 0c e6 58 3e c3 93 4b be
       0.15123893 0.101563476 0.21181506 -0.19880585

CEnet.IMDBs.0.cca.conv_du.0.weight f4 [1, 16, 1, 1]
000000 ce d6 2b 3c 77 5d ef 3b 2c bd 91 bb 91 f7 b9 3c
       0.010488225 0.007304843 -0.0044476 0.022701057
000010 67 20 b6 3c 07 e6 83 3c 1e 6d 81 3c 97 03 90 3c
       0.022232248 0.016100897 0.015799101 0.017579837
000020 90 f3 80 3c a2 e7 81 3c 37 94 9f 3c e3 e8 7d 3c
       0.01574114 0.015857521 0.019479854 0.015497419
000030 2f 78 2c 3c 5b f9 50 bc f0 04 31 3c 29 4a 57 ba
       0.010526701 -0.0127547635 0.0108044 -0.000821265

CEnet.IMDBs.0.cca.conv_du.2.bias f4 [16]
000000 c8 1d 82 3e 3d 02 e5 3c 7f 52 4a bf 6b f5 21 bf
       0.25413346 0.027955169 -0.7903213 -0.63265103
000010 d1 48 61 bf 07 a1 60 3f cf 03 68 3f 09 7b 8b be
       -0.88001734 0.8774571 0.9063081 -0.27242306
000020 a1 08 df 3e 5f 38 4a bf c5 a1 83 bd b5 92 f0 be
       0.4356127 -0.78992265 -0.064273395 -0.4698693
000030 e5 83 52 3f 22 fd 3f 3f 92 6c a3 be 39 5c 0e 3f
       0.82232505 0.74995625 -0.3191877 0.5560947

CEnet.IMDBs.0.cca.conv_du.2.weight f4 [16, 1, 1, 1]
000000 87 b0 54 bc db 45 a6 bc f2 29 90 3b 61 a1 99 3b
       -0.0129815405 -0.020296982 0.0043995315 0.0046884273
000010 91 e7 14 bb 3c 92 92 3b a2 72 c2 3a 0f ec 6e 3c
       -0.0022721032 0.004472999 0.0014835189 0.014582648
000020 f2 5e 07 3c 38 1b c9 3b a5 95 16 3c 97 aa 03 3c
       0.008262383 0.006137278 0.0091909515 0.008036277
000030 14 38 84 3c 7e 5e e4 3b ae 62 74 3c e6 18 80 3b
       0.016140021 0.006969272 0.014916105 0.003909218

CEnet.IMDBs.1.c1.bias f4 [16]
000000 fc 38 1e bc f7 88 36 bd f9 68 40 bd 07 9b b3 3d
       -0.009657141 -0.044564214 -0.04697511 0.087698035
000010 81 2c 48 3d 11 3f 1e bc cb e6 86 bd f6 ba 88 3d
       0.048870567 -0.009658591 -0.06586989 0.06676285
000020 b1 f6 8f bd ed 11 42 bd a7 a1 af 3c 52 6f 8b 3d
       -0.070294745 -0.047380377 0.021439387 0.06808342
000030 6c bb 79 bd 7c 1a a9 ba 56 b3 31 3c a8 77 a9 bb
       -0.060969755 -0.001290157 0.01084598 -0.005171735

CEnet.IMDBs.1.c1.weight f4 [16, 16, 3, 3]
000000 70 f1 d8 3b e3 6d e3 b9 48 8f 4d 3c ef 51 54 bd
       0.0066205785 -0.00043378686 0.012546368 -0.05183595
000010 08 4d 4e 3d 19 7e 7a bd 26 f4 59 bd 7c 14 17 3b
       0.05036643 -0.061155412 -0.053211354 0.002305298
000020 1b a5 a7 3c 4e af d9 3c 17 32 b1 bc 30 e1 15 3c
       0.02046447 0.02657285 -0.02163033 0.009147927
000030 6d 61 84 3d 06 8c 18 3d 15 d9 1b 3d c5 63 32 3c
       0.06463895 0.03724291 0.038048822 0.010888045
000040 b4 10 3a 3d b9 a2 0a bd 7f 08 bc bc 5e 26 51 3d
       0.045426086 -0.03384659 -0.02295327 0.05106198
000050 46 e1 be 3c 64 c2 9d bd e9 51 22 bd a1 46 d5 3c
       0.023300778 -0.07703093 -0.039628897 0.026034655
000060 a7 14 f5 bc bc 04 dd 3c 3b 4e 3e bd 91 9c b8 bc
       -0.029917074 0.026979797 -0.046461325 -0.022535594
000070 6e 10 17 3d 2e fb 0d bd e2 fb 5e bd c8 3e 51 3d
       0.036880903 -0.03466337 -0.054439433 0.051085263
000080 35 b2 8c bd c1 46 bc 3c cf fb 8d bd 5c 98 95 bd
       -0.06869928 0.022982957 -0.06932794 -0.07304451
000090 67 bb 7e 3c 1a 27 09 bd 71 93 27 3c fa e5 d6 3d
       0.01554761 -0.033484556 0.010228024 0.10493083
0000a0 b4 c3 f5 bc 03 c0 2d 3d 06 cc 57 bb 2e 30 d4 3c
       -0.030000545 0.042419445 -0.0032928004 0.02590188
0000b0 2e fa 77 bb f6 43 58 bc 35 f6 a2 bc 2b d7 84 bd
       -0.0037838328 -0.013199797 -0.019892791 -0.064863525
0000c0 fe 0e 3f 3d 8a 0f 9b 3d b5 bf 0e bd 53 8c a1 3d
       0.046645157 0.07571323 -0.034850795 0.07888093
0000d0 c1 9f 2d 3d 6a 41 a7 3c 7c ce 81 bd 7f 13 48 b9
       0.04238868 0.020416934 -0.06338212 -0.00019080749
0000e0 4e a1 31 bb ba 09 1a 3c f8 62 36 bc a3 c3 3a bd
       -0.0027104202 0.009401733 -0.011131994 -0.04559673
0000f0 d9 29 cc bc 49 dd 4b 3c 55 5f 8f 3d 50 95 3e bb
       -0.024922298 0.012442895 0.07000605 -0.0029080696
000100 95 b6 a4 bc bd 3c 17 bd 55 60 62 3d 75 62 4a bd
       -0.020106593 -0.03692316 0.05526765 -0.049410302
000110 c9 43 8a bd 2f 12 86 bd 8e e3 1c bc 0f 07 2e 3d
       -0.0675121 -0.06546437 -0.009575738 0.0424872
000120 51 98 1b bd dc be 9a 3d 40 3e 8d 3d 61 7c cb 3c
       -0.037987057 0.07555935 0.06896639 0.024839582
000130 f5 d1 8c 3d 11 46 bb 3c 59 e8 9a 3c 42 fc e0 bb
       0.068759836 0.022860559 0.01890962 -0.006866009
000140 56 60 77 bd 92 76 0b 3d ed 9f af bd 0c e6 78 bd
       -0.060394607 0.034048624 -0.08575425 -0.060766265
000150 3b 7c 93 3c 44 e9 77 3d 7b 03 af bd 16 5c c7 bc
       0.018003574 0.060525194 -0.08545586 -0.024335902
000160 8a ea 54 3d 50 3f 6b bd e5 b9 83 bd 2a bb 31 3c
       0.051981486 -0.057433426 -0.06431941 0.010847846
000170 d8 7e 65 bd 64 15 6f bd ba 5c 01 bd ce bf 8e bd
       -0.05602917 -0.05837001 -0.03158257 -0.069701776
000180 8e 96 93 3c 44 e1 2c 3c 6b 33 73 bc 9a 72 1b bd
       0.018016126 0.010551754 -0.014843802 -0.03795109
000190 1b 12 c3 bc 2c 6d ad 3a fa f9 a4 bd 0a 7e 2d bd
       -0.023812344 0.0013231388 -0.08055492 -0.04235653
0001a0 c3 f0 2b bd 5d 53 86 bd b5 5b 5c 3d ba 6b aa 3c
       -0.041977655 -0.06558869 0.053798396 0.020803321
0001b0 3f b1 ae bd 54 55 96 3c 26 31 b9 bd 9f 63 b3 3a
       -0.08529901 0.018351234 -0.090425774 0.0013686306
0001c0 38 b2 81 bd cc b1 f2 bb 81 cf 3a 3d a5 c9 f2 3c
       -0.06332821 -0.007406449 0.045608047 0.029637167
0001d0 1f 23 b9 bd 75 2a 81 bd 6f 5e ed bc 55 58 51 3d
       -0.09039902 -0.06306926 -0.028975694 0.05110963
0001e0 2c 9d 9a bd ec 5a ae bd 64 90 2b 3d e9 a4 e2 3c
       -0.075495094 -0.08513436 0.04188575 0.027666526
0001f0 2f fd bf bd 79 90 13 bd 1a 1c 30 3d 55 83 cb bc
       -0.09374463 -0.03602645 0.04299555 -0.024842897
000200 d0 27 81 3d c4 ca 13 bd c1 99 83 bc eb 95 53 3c
       0.06306422 -0.036082044 -0.016064527 0.012914161
000210 41 b1 02 bd 5a 53 c2 3c 16 ea 28 3d a1 63 8d bd
       -0.031907324 0.023721386 0.041238867 -0.06903768
000220 f7 e9 a5 bd 7a 9e f2 bb cd 6e 53 bb f6 e5 b0 bd
       -0.08101266 -0.007404146 -0.0032262087 -0.086376116
000230 8f b0 09 bd 77 e5 8e bd 57 80 76 3b c9 d2 78 3d
       -0.033615645 -0.06977361 0.0037613118 0.060747895
000240 96 47 8c 3d a5 e0 cd bc cf 59 51 3d 99 f5 9c 3d
       0.068495914 -0.025131533 0.05111104 0.076640315
000250 1c a0 bd 3c 4c ea 69 bd e5 30 2c 3d fb 5f 2a 3d
       0.023147635 -0.05710821 0.042038817 0.04159544
000260 43 b6 4b bd 76 12 c1 3d 8b ab 3f 3d 4b 8a 3f 3d
       -0.049734365 0.09427349 0.046794455 0.046762746
000270 2e d1 71 b9 93 13 4c 3d 0d 68 14 bd f2 47 2c 3d
       -0.00023061477 0.049823355 -0.036232043 0.0420608
000280 6c 28 69 bd bc d6 47 bd 0a 2c 67 3d d9 93 1a 3d
       -0.056923315 -0.04878877 0.056438483 0.037738655
000290 a0 6b f0 bd 72 e1 e3 bd 50 34 4d bc e8 c9 01 3c
       -0.11739278 -0.11126985 -0.012524679 0.007921673
0002a0 4b 99 9c bd d5 2c 00 bc 0d 25 f0 bc 59 0d bb 3c
       -0.07646426 -0.007823189 -0.029314542 0.022833513
0002b0 07 86 5b 3d fa f4 0a be 70 32 c1 ba 76 7a 3f bd
       0.053594615 -0.13570014 -0.0014739763 -0.046747647
0002c0 1c 4d d8 bd fe e8 01 3c 17 e6 a5 bd 9a f2 41 3d
       -0.105615824 0.007929085 -0.08100527 0.047350504
0002d0 fa 62 1e bd 89 0d 04 3b ec d4 a9 bd 92 57 50 bd
       -0.03866861 0.002014967 -0.08292565 -0.050864764
0002e0 43 49 8a bd 97 d8 56 3d 67 b7 11 bd 89 2e 10 bd
       -0.06752255 0.05245265 -0.035575297 -0.03520063
0002f0 be e5 8b bd 10 56 88 bd a3 07 98 3d 06 2b c2 bb
       -0.06830929 -0.0665704 0.074233316 -0.005925539
000300 75 fc f9 bc f7 58 15 3d 10 35 96 3d c5 5f df 3b
       -0.030515889 0.036461797 0.073343396 0.0068168365
000310 d2 eb 25 bd 26 00 8a 3c e7 89 57 3c ac a0 16 3d
       -0.0405081 0.016845774 0.013155437 0.036774322
000320 c6 e5 a1 bb 1f b1 88 bd 8d 7a b1 bd d5 fa 5d 3d
       -0.004940721 -0.06674408 -0.08665953 0.05419429
000330 43 31 4a 3d e0 06 ff 3c 8b fa 9e 3d 16 30 6a bd
       0.049363386 0.031131208 0.07762631 -0.057174765
000340 9b 3d 2d bd 73 62 1a 3c 20 28 5e bd 14 d9 ed 3d
       -0.04229508 0.009422886 -0.054237485 0.1161367
000350 51 3e 8d 3d 67 91 40 bc d1 16 76 bc 74 6b 80 bd
       0.068966515 -0.011753417 -0.015020088 -0.06270495
000360 13 2b b8 bd 20 2f bd 3c b9 75 9a ba fc 56 c0 bd
       -0.08992591 0.02309376 -0.0011784352 -0.09391591
000370 ff 5d 8b 3d b3 ae 21 3d 03 03 87 3b 99 ab 24 bd
       0.06805038 0.039473247 0.004120232 -0.04020271
000380 d7 26 a7 bb 96 f4 31 38 e6 17 cf bd 1e 0c ac bd
       -0.0051010656 4.2427877e-05 -0.1011198 -0.08400749
000390 1d 5a f8 3c 26 41 02 be 7a 3f ec bd 4e 5a 58 3d
       0.030316407 -0.12720165 -0.11535545 0.052820496
0003a0 0f ab da bd 73 62 e1 bd e3 17 8f 3b b9 dd ad bd
       -0.10677158 -0.11005106 0.004366861 -0.08489556
0003b0 27 9c 20 3d 5d 00 82 3c 7e 50 43 3a 24 6d d8 bb
       0.03921142 0.015869314 0.0007450654 -0.0066048075
0003c0 9d 6b ad 3c 8a da 4e 3d 1a 7d f3 39 c4 a0 10 bd
       0.021169478 0.050501384 0.0004644178 -0.035309568
0003d0 61 a2 40 3c ee 59 83 3c ae fc b7 3c 89 88 a6 bd
       0.011757464 0.016034093 0.022459354 -0.08131511
0003e0 7f 19 a2 3c 1a b0 ac bc b0 9d 5a 3d a4 8f 37 3d
       0.019787548 -0.021080066 0.05337304 0.04481472
0003f0 90 b5 ea bd 70 4a 48 bd 1b c3 24 3c cc 7a a4 3b
       -0.114604115 -0.048899114 0.010056282 0.0050195213

CEnet.IMDBs.1.c2.bias f4 [16]
000000 7b ff 4c 3d c1 90 92 bd 5d 9a 02 bd 26 08 35 3b
       0.050048333 -0.07156516 -0.031885494 0.0027623265
000010 d8 ac b3 b9 2a ad 0d 3d 22 0c 2c 3a 4c 02 37 3d
       -0.0003427032 0.03458897 0.0006563087 0.044679925
000020 a6 a8 6b ba 0b ff fd bc 93 36 54 3b 4d dd 88 3d
       -0.0008989669 -0.031005403 0.0032381162 0.06682835
000030 e2 18 5f 3b 2b 18 75 3b b9 cd b2 bd 61 c7 af bc
       0.003404193 0.0037398438 -0.08730645 -0.021457376
