onnx/super_resolution_inference_x3_static_512x512-v1.0.0.onnx (onnx, 458613 bytes, 53 tensors)

269 f4 [4]
0	0x3f800000	1.0
1	0x3f800000	1.0
2	0x40400000	3.0
3	0x40400000	3.0

SRnet.IMDB1.0.c1.bias f4 [32]
0	0xbca4e621	-0.020129265
1	0x3d6768cf	0.056496438
2	0x3d99fad0	0.07518542
3	0x3cb0b872	0.021572325
4	0x3c09127d	0.008366224
5	0xbc7f864c	-0.015595984
6	0x3d84bfc6	0.064818904
7	0x3b8b6089	0.0042534512
8	0x3c9cc00e	0.019134548
9	0xbc06b560	-0.008221954
10	0xbc12ac6c	-0.008952241
11	0x3d7d3f1d	0.061827768
12	0x3d23bf10	0.039977133
13	0xbba4e68e	-0.005032367
14	0x3c2e32a1	0.010632188
15	0x3c502cda	0.012706006
16	0xbca46d2a	-0.020071585
17	0x3d907101	0.07052804
18	0x3cd7294b	0.026264807
19	0x3d5f1369	0.05446187
20	0x3d06099e	0.032724015
21	0x3cb04eac	0.021521889
22	0x3d1b2cb9	0.037884448
23	0x3b1c21b5	0.0023823802
24	0xbcc49e9b	-0.02400141
25	0x3d03822e	0.03210657
26	0xbd910874	-0.070816904
27	0x3cde11e4	0.02710814
28	0x3d192415	0.037387926
29	0x3cc93fe4	0.024566598
30	0x3d3e538f	0.046466406
31	0xbc6000d5	-0.013672073

SRnet.IMDB1.0.c1.weight f4 [32, 32, 3, 3]
0	0xbd008f0e	-0.031386428
1	0xbd236cc4	-0.03989865
2	0xbbccc281	-0.0062487726
3	0xbcf00e18	-0.029303595
4	0xbd552030	-0.05203265
5	0xbb2a13bc	-0.0025951704
6	0xbce5506a	-0.027992446
7	0xbd39df45	-0.045378942
8	0x3d48773b	0.048941832
9	0xbd0c1106	-0.034195922
10	0xbbb7e163	-0.005611585
11	0xbd5eb9a6	-0.054376267
12	0x3d2a65b3	0.041600894
13	0x3cfd465c	0.030917339
14	0x3b77dd10	0.0037820973
15	0xbc906e39	-0.017630683
16	0xbd92a5e6	-0.07160549
17	0x3c8e62f3	0.017381167
18	0xbbcd953c	-0.0062738936
19	0xbca59cbf	-0.020216344
20	0x3d11f6f7	0.035635915
21	0x3d45e0e8	0.04831019
22	0x3d01e109	0.03170875
23	0x3d07ada4	0.03312458
24	0xbc6d1f22	-0.014472755
25	0xbd870f04	-0.06594661
26	0xbb98eea0	-0.004667118
27	0x3d142213	0.03616531
28	0xbdcc8035	-0.09985391
29	0x3c46a9a7	0.012125409
30	0xbc9ec656	-0.019381683
31	0xbdb6bded	-0.08922944
32	0x3cb58756	0.02215926
33	0x3cd29b50	0.025708824
34	0x3cb291c7	0.021798028
35	0xbd154af6	-0.03644844
36	0xbcf97154	-0.030449547
37	0xbc3c4a0c	-0.0114922635
38	0x3d0d7f87	0.034545448
39	0x3d925f0d	0.07147036
40	0x3ce9a905	0.028522978
41	0x3cdd2470	0.026994914
42	0x3c92e496	0.017931264
43	0x3d7e5a2e	0.06209772
44	0xbc974310	-0.018464595
45	0xbbf120f4	-0.0073586646
46	0x3d86e141	0.065859325
47	0x3c8ccf76	0.017188769
48	0x3d27f7be	0.04100775
49	0x3d67839c	0.056521997
50	0xbd276280	-0.04086542
51	0x3bd7d671	0.0065868427
52	0x3d69abb7	0.057048526
53	0xbcd1d2a3	-0.025613135
54	0x3d38a450	0.045078576
55	0x3ce746a2	0.028231923
56	0x3bba6dbf	0.0056893523
57	0x3d9e974d	0.07743702
58	0x3d81a4be	0.0633025
59	0x3b65eda2	0.0035084267
60	0x3d2af88e	0.041740946
61	0xbc409ceb	-0.011756162
62	0x3d041e31	0.032255355
63	0xbcbc2b4b	-0.022969862
64	0xbc28c3ed	-0.010300619
65	0x3c07ec35	0.008296062
66	0x3c290319	0.01031568
67	0x3d33070a	0.043707885
68	0x3d8a3b1d	0.06749556
69	0x3c93f18f	0.01805952
70	0x3cfd0536	0.030886274
71	0x3ce0bc05	0.027433405
72	0x3c1d6694	0.009606976
73	0xbcd92886	-0.02650858
74	0xbd16cee9	-0.03681842
75	0xbd33cc4f	-0.043896016
76	0xbd1ccd9d	-0.038282026
77	0xbd3c1b94	-0.045924738
78	0xbb08d857	-0.0020880902
79	0x3cf1fd1f	0.029539643
80	0xbc00e4e7	-0.007867075
81	0xbd162b0f	-0.036662158
82	0xbce35b5f	-0.02775353
83	0xbd7ee0b1	-0.062226
84	0x3d21637b	0.039401513
85	0x3cc76dbe	0.024344321
86	0x3d3f5f42	0.046721704
87	0xba119b86	-0.0005554486
88	0x3d162a1a	0.036661245
89	0x3c8ac8b9	0.016941415
90	0x3d0c713d	0.03428768
91	0xba904131	-0.0011005757
92	0xbd1f146f	-0.038837846
93	0x3d9c6fd3	0.07638516
94	0xbd34d4ba	-0.044148184
95	0x3c479794	0.012182135
96	0xbcefd602	-0.029276852
97	0x3bb6a0ff	0.0055733914
98	0xbc546f0e	-0.012965931
99	0xbc553201	-0.01301241
100	0x3c095e34	0.008384276
101	0x3d3ad440	0.045612574
102	0xbcd35152	-0.025795612
103	0x3d485ee9	0.04891864
104	0xbba12004	-0.0049171466
105	0x3d24237c	0.040072903
106	0xbc3f7111	-0.011684672
107	0xbd45dd57	-0.04830679
108	0x3d0e773c	0.03478168
109	0x3cf5f6a7	0.03002484
110	0x3ce34659	0.027743505
111	0xbcaa4b53	-0.02078787
112	0xbd1d04dd	-0.038334716
113	0xbc6fd9ef	-0.014639362
114	0xbcf04694	-0.02933053
115	0x3cf09095	0.029365817
116	0xbd515a8b	-0.05111174
117	0x3ce6b49d	0.028162295
118	0xbdb8b5a3	-0.090190195
119	0xbd47fd4c	-0.048825547
120	0x3ca88a3d	0.02057373
121	0xbdb7b909	-0.089708395
122	0xbd474c47	-0.048656728
123	0x3a656d8f	0.0008751982
124	0x3bd92b55	0.00662748
125	0x3d1efd04	0.038815513
126	0x3b9281a2	0.00447102
127	0x3cd27f10	0.025695354
128	0xbc155deb	-0.00911663
129	0xbc6e58a2	-0.014547499
130	0xbd2fae8a	-0.042891063
131	0xbd31a4ae	-0.04336994
132	0x3d7445aa	0.05963675
133	0x3d191da4	0.037381783
134	0x3cc2992f	0.023754684
135	0xbd38ec4e	-0.045147233
136	0xbcf6609a	-0.03007536
137	0xbd06babf	-0.03289294
138	0x3d3bc47b	0.045841675
139	0xbd44f0c0	-0.04808116
140	0x3c92a38b	0.017900249
141	0x3c98485b	0.01858919
142	0x3ca4b211	0.02010444
143	0x3d67cdd3	0.056592774
144	0xbd277355	-0.040881474
145	0x3d3a5787	0.04549363
146	0xbc134bae	-0.008990211
147	0xbcaeb63d	-0.021327132
148	0xbd0fc557	-0.035100307
149	0x3d7fa041	0.06240869
150	0xbcaecb3f	-0.02133715
151	0x3d5d97ea	0.054099955
152	0x3bdc3358	0.006719988
153	0x3d8f1c47	0.06987815
154	0x3c92e8e5	0.017933318
155	0x3cceaa12	0.02522758
156	0x3aeb26ee	0.0017940679
157	0xbc74d388	-0.014943011
158	0x3d2d25ab	0.04227225
159	0x3d4ee875	0.050514657
160	0x3d610f4d	0.054946233
161	0xbd22a799	-0.039710615
162	0xbd382eac	-0.044966385
163	0xba8a8eed	-0.001057116
164	0xbd3db75b	-0.04631744
165	0x3d4512ec	0.04811375
166	0xbd4bf9db	-0.049798828
167	0xbc9f0d02	-0.019415382
168	0xbc9293af	-0.017892687
169	0xbd3f1301	-0.046648983
170	0xbd86e1c3	-0.065860294
171	0xbcea812e	-0.02862605
172	0xbdc8324c	-0.09775218
173	0x3bc4cea2	0.006006078
174	0x3bbcd767	0.0057629826
175	0x3d48b8d0	0.049004376
176	0xbd437b58	-0.04772505
177	0xbd39d5ea	-0.04537002
178	0xbc89bf4b	-0.016814848
179	0xbd7c9de8	-0.06167403
180	0x3c53dd19	0.012931132
181	0xbc8c13b7	-0.017099245
182	0x3aa53312	0.0012603721
183	0xbb92ab5d	-0.0044759945
184	0x3d82ee3e	0.06393097
185	0x3c6e625d	0.014549819
186	0x3d16047d	0.036625374
187	0xbcb9ae59	-0.022666143
188	0xbd86e75f	-0.06587099
189	0x3d885f0d	0.066587545
190	0x3d6415e9	0.055684958
191	0xb972a11b	-0.00023138935
192	0x3d6f004d	0.058349896
193	0x3d710a0a	0.058847465
194	0x3d14e7f6	0.036354028
195	0xbc956a96	-0.0182393
196	0x3bb21431	0.005434536
197	0xbd82aec3	-0.063809894
198	0x3d785b24	0.060633793
199	0xbd3c6cb1	-0.046002094
200	0x3cc42117	0.02394156
201	0xbcf3028b	-0.029664299
202	0x3c2e0ea9	0.010623612
203	0xbcaf1bae	-0.021375503
204	0xbbb5c545	-0.005547198
205	0x3cf81ae2	0.030286256
206	0x3d866350	0.06561911
207	0x3b295cfd	0.002584278
208	0x3d3ff485	0.04686405
209	0xbca964ba	-0.020677913
210	0x3d1ca327	0.03824153
211	0x3b91ca7d	0.0044491873
212	0xbcb693d1	-0.022287281
213	0xbd41c64b	-0.047308248
214	0xbd98c43d	-0.074593045
215	0xbcda6bcd	-0.026662732
216	0xbd6d98ea	-0.05800716
217	0x3d9681e2	0.07348992
218	0x3d50a9fc	0.05094336
219	0xbbb2fee9	-0.0054625166
220	0x3c39184b	0.011297296
221	0xbc5da802	-0.013528826
222	0x3d5d88cb	0.054085534
223	0xbcac8fae	-0.021064606
224	0x3cbbb750	0.022914559
225	0x3b30d1c4	0.0026980499
226	0x3cd1e5af	0.025622217
227	0x3d1d6003	0.038421642
228	0x3cb19398	0.021676823
229	0x3c819945	0.015820155
230	0xbbb8884a	-0.0056314813
231	0x3a157165	0.0005700796
232	0x3d4ce144	0.050019518
233	0x3c8a5489	0.016886013
234	0x3aa40247	0.0012512886
235	0x3c344d91	0.011004821
236	0xbcb71c2a	-0.022352297
237	0xbd09937f	-0.03358793
238	0xbd63f0f7	-0.055649724
239	0x3be11285	0.006868663
240	0xbd123fbf	-0.035705324
241	0x3d23a083	0.039947998
242	0xbd01f021	-0.031723145
243	0xbced3f25	-0.028960774
244	0x3d187271	0.037218515
245	0x3cef4e79	0.029212223
246	0xbc9d5c88	-0.019209161
247	0x3c95dbba	0.01829325
248	0xbcaccd67	-0.021094037
249	0xbab64ea7	-0.0013908938
250	0xbd67ce49	-0.056593213
251	0x3d08046f	0.033207353
252	0xbd4b25fc	-0.04959677
253	0x3d0d2267	0.034456637
254	0xbcee00c0	-0.029053092
255	0x3bddea3e	0.0067723086

SRnet.IMDB1.0.c2.bias f4 [32]
0	0x3d17e1aa	0.037080444
1	0x3bd6eeae	0.0065592146
2	0xbd3d42f0	-0.046206415
3	0x3c0f39d3	0.008741814
4	0x3d016976	0.031594716
5	0x3d5db232	0.05412502
6	0x3d0fa66f	0.035070833
7	0x3c74d18b	0.014942537
8	0x3c7b2698	0.015329026
9	0x3d858103	0.06518748
10	0x3cacb2fe	0.021081444
11	0xbd0b7449	-0.034046445
12	0x3c6ad0bf	0.0143319955
13	0x3ce8de40	0.02842629
14	0x3d02347a	0.031788327
15	0x3ad10eea	0.0015949879
16	0x3c25f801	0.0101299295
17	0xbaa2609a	-0.0012388409
18	0xbcba33a6	-0.022729706
19	0xbca574e5	-0.020197341
20	0x3d303649	0.04302052
21	0x3d8cfd29	0.06884224
22	0x3d6d8871	0.05799145
23	0x3ce011dd	0.027352268
24	0x3bb76bdd	0.005597575
25	0xbd086c71	-0.033306543
26	0x3cfc9bf8	0.03083609
27	0x3d65245d	0.05594288
28	0x3d8d0ba9	0.068869896
29	0xbbec5421	-0.0072121774
30	0x3ce08d19	0.02741103
31	0x3d032f5f	0.0320276

SRnet.IMDB1.0.c2.weight f4 [32, 24, 3, 3]
0	0xbd1dd34c	-0.038531587
1	0xbd56da02	-0.052454002
2	0xbc989375	-0.018625
3	0x3c98af86	0.018638384
4	0x3d0a5660	0.03377378
5	0xbcdfe6ac	-0.027331673
6	0xbd9cbc5b	-0.076531135
7	0x3cf87e28	0.030333593
8	0xbd2e81bc	-0.042604193
9	0x3d4e79f5	0.050409276
10	0x3d983718	0.07432383
11	0xbd8309b9	-0.06398339
12	0x3ddf866b	0.1091431
13	0xbe71677e	-0.23574635
14	0x3d21acda	0.039471485
15	0x3e08cd3f	0.13359545
16	0xbe2b7937	-0.16745459
17	0x3debb406	0.11508946
18	0x3d124c0e	0.035717063
19	0xbd120a21	-0.03565419
20	0x3cec9b83	0.028882748
21	0xbd645adf	-0.055750724
22	0x3ce9a65e	0.028521713
23	0xbdbce461	-0.09223247
24	0xbd39f083	-0.045395385
25	0x3b9a4ca0	0.0047088414
26	0xbd61fe2a	-0.05517403
27	0xba30f62c	-0.00067505497
28	0xbd9a835f	-0.07544588
29	0xbd3f16a1	-0.04665244
30	0x3cc05064	0.023475833
31	0x3c7df3b5	0.015499999
32	0xbcf7f3ea	-0.030267674
33	0x3c4e1496	0.01257815
34	0xbc01b71f	-0.007917195
35	0xbb9fd77a	-0.0048779817
36	0xbd313559	-0.043263767
37	0xbdb4a347	-0.08820205
38	0xbb7eda54	-0.0038887458
39	0xbd884ae7	-0.066549115
40	0x3d590b00	0.052989006
41	0x3d0c16f1	0.034201566
42	0xbc34412d	-0.011001867
43	0x3d2eed77	0.042706933
44	0x3d75f7b1	0.06005067
45	0xbbfaab30	-0.0076498017
46	0xbce279df	-0.027646003
47	0x3bb18531	0.005417489
48	0x3c88b8b9	0.016689645
49	0x3d968bf3	0.07350912
50	0x3d47b1b2	0.048753448
51	0x3c3028b7	0.010751895
52	0xbcd02c8c	-0.025411867
53	0x3a89c3bf	0.0010510607
54	0x3b317353	0.0027076795
55	0xbcac799f	-0.021054087
56	0xbd41c671	-0.04730839
57	0x3d2ef73b	0.042716246
58	0xbd119ce9	-0.03555003
59	0x3d0172cf	0.03160363
60	0xbd600bab	-0.054698627
61	0x3a2ec767	0.00066672865
62	0xba976fc6	-0.0011553697
63	0xbd4da3a3	-0.050204884
64	0xbad5f876	-0.0016324657
65	0xbbf1e9dd	-0.007382615
66	0xbdad2cf5	-0.084558405
67	0x3a767e07	0.0009402935
68	0x3dd8d4cb	0.10587462
69	0xbc74d05a	-0.014942253
70	0x3d9f6f37	0.077848844
71	0x3a54bf1c	0.0008115636
72	0x3d834a12	0.06410612
73	0x3d972413	0.073799275
74	0x3d882fa5	0.066497125
75	0x3c8e633a	0.0173813
76	0xbc00ddce	-0.007865382
77	0xbb6d6c64	-0.0036227936
78	0xbd82919f	-0.06375431
79	0xbde8c616	-0.11365907
80	0xbd5610d1	-0.05226213
81	0xbd9f32c0	-0.07773352
82	0xbcd2c211	-0.025727304
83	0x3cfc404e	0.030792382
84	0xbd86bffb	-0.06579586
85	0xbba20fd2	-0.0049457336
86	0xbd5a0fc1	-0.05323768
87	0xbd9457cc	-0.072433084
88	0x3d60e784	0.05490829
89	0xbcece082	-0.028915647
90	0xbda76bbb	-0.08174845
91	0x3e0daecb	0.1383621
92	0x3daaa0ba	0.083314374
93	0x3ce2bc65	0.027677724
94	0x3ea293ed	0.31753483
95	0x3e95083c	0.29107845
96	0xbd19975b	-0.03749786
97	0x3e5138c8	0.20431817
98	0x3e06daeb	0.13169448
99	0xbce6636a	-0.028123576
100	0xbd85ea2e	-0.06538807
101	0xbcc97c11	-0.024595292
102	0xbd26946b	-0.040668886
103	0x3cecc625	0.028903076
104	0xbb862a69	-0.004094411
105	0x3d30c90b	0.04316048
106	0xbd076455	-0.03305467
107	0xbd9d38c3	-0.07676842
108	0x3d3450ba	0.0440223
109	0xbda8c5fe	-0.08240889
110	0xbd1dbbbd	-0.03850912
111	0x3d18525b	0.037187915
112	0xbdfc1d4f	-0.12310278
113	0xbe1dbb69	-0.15403523
114	0x3d0823f4	0.033237413
115	0x3d5d6c63	0.054058444
116	0x3d0a9980	0.033837795
117	0x3d41c8bd	0.04731058
118	0x3d3eb0da	0.046555378
119	0xbd9a9182	-0.07547285
120	0x3cdc2328	0.026872233
121	0x3c01a777	0.007913462
122	0xbc9bbf81	-0.019012215
123	0xbc85efd2	-0.016349707
124	0xbdcbd382	-0.09952451
125	0xbccd4241	-0.025056006
126	0xbc6f791f	-0.01461628
127	0xbd97a55c	-0.07404587
128	0x3e41747f	0.18892096
129	0x3df8bb2d	0.12145076
130	0xbd548ffd	-0.05189513
131	0x3e402264	0.18763119
132	0xbc8a0b5c	-0.01685112
133	0xba371e9b	-0.00069854566
134	0x3e1586ee	0.14602253
135	0x3c59ba90	0.013289109
136	0xbca84f2b	-0.020545563
137	0x3c80d555	0.015726725
138	0x3db941af	0.09045731
139	0x3cf44a4c	0.029820584
140	0xbba18d1a	-0.0049301507
141	0x3d8af6b8	0.06785339
142	0xbd2cb23f	-0.042162176
143	0xbd1b8b8f	-0.03797489
144	0x3dc56477	0.09638303
145	0x3c1d20be	0.009590326
146	0x3d853ca6	0.065057084
147	0xbd20d8aa	-0.039269127
148	0x3c6abcac	0.014327209
149	0x3cb1155e	0.021616634
150	0x3db2f489	0.08738048
151	0x3dd43f7d	0.10363672
152	0xbce87a40	-0.028378606
153	0x3cf21d1a	0.029554892
154	0xbd6f9927	-0.058495667
155	0x3d8aa86c	0.06770405
156	0xbda113b6	-0.07865088
157	0xbddb5c5d	-0.10710976
158	0x3dc550a6	0.09634523
159	0x3d90d5c5	0.07072023
160	0xbddeb4ff	-0.10874366
161	0x3d2cd90b	0.042199176
162	0xbc1d7183	-0.009609583
163	0xbd744207	-0.05963328
164	0xbc54a2c6	-0.012978261
165	0x3ca35e25	0.019942353
166	0xbcb31666	-0.021861266
167	0x3d6aef91	0.057357375
168	0x3d64e589	0.055882964
169	0x3cc6c1d6	0.02426235
170	0x3d11f1b2	0.03563089
171	0xbd2e21ea	-0.04251281
172	0x3de2a08f	0.1106578
173	0x3c4e8632	0.012605237
174	0x3c2f43ae	0.010697288
175	0x3dd9a12e	0.10626446
176	0x3e02f68d	0.12789364
177	0xbca755de	-0.020426687
178	0x3e017849	0.12643541
179	0xbccd052e	-0.025026884
180	0x3d3c8582	0.04602576
181	0xbce80571	-0.028322907
182	0xbda87a86	-0.082264945
183	0xbd5a2875	-0.05326124
184	0x3d24083f	0.040046927
185	0x3ce4b563	0.027918523
186	0x3d03d5f4	0.032186463
187	0x3da7526a	0.08170016
188	0xbd6998f5	-0.057030637
189	0xbde80ead	-0.11330924
190	0x3cd45a13	0.025921857
191	0x3dcc7fd0	0.09985316
192	0xbde85d0f	-0.113458745
193	0xbbe3fdce	-0.006957746
194	0x3da38c42	0.079857364
195	0x3dc5f8be	0.096665844
196	0x3dae5e99	0.08514137
197	0x3d7a5c30	0.061123073
198	0x3d6f76de	0.05846297
199	0x3db2b097	0.08725088
200	0x3c9d25a8	0.019182995
201	0xbc384c44	-0.011248652
202	0x3e02168a	0.1270391
203	0x3d807de3	0.06274011
204	0xbc36af7a	-0.011150235
205	0x3d973d26	0.0738471
206	0xbc1056b1	-0.008809731
207	0x3db6f4ae	0.08933388
208	0xbdd26708	-0.10273558
209	0xbd131f5a	-0.03591857
210	0xbcaca3fd	-0.02107429
211	0xbdeace00	-0.11465073
212	0xbd9c33f3	-0.07627096
213	0x3c94cfbe	0.018165465
214	0xbc961851	-0.018322142
215	0xbcb0e0d1	-0.021591576
216	0x3ccb95ca	0.024851698
217	0xbd5663e8	-0.05234137
218	0xbd8a2a4f	-0.06746351
219	0xb9fe6d54	-0.0004852811
220	0x3d1b8742	0.03797079
221	0x3c6fb536	0.014630606
222	0x3d17212c	0.03689687
223	0x3d6f8a35	0.058481414
224	0xbd510904	-0.05103399
225	0xbc37999b	-0.011206056
226	0x3de308b2	0.11085643
227	0xbd78c1b7	-0.060731616
228	0x3d535653	0.051595997
229	0x3deda1ca	0.116031244
230	0xbd831b3f	-0.06401681
231	0x3d060657	0.03272089
232	0x3d70e951	0.058816258
233	0x3bde4767	0.006783414
234	0x3d82ee28	0.06393081
235	0xbc176ae4	-0.009241793
236	0x3d47bcf4	0.048764184
237	0x3bcf4c03	0.0063262
238	0xbd159f70	-0.036529005
239	0xbbd6e20a	-0.0065577077
240	0xbd3e0ea2	-0.046400674
241	0x3d685860	0.056724906
242	0xbc093221	-0.008373768
243	0xbd74507a	-0.05964706
244	0xbd86292e	-0.06550823
245	0x3d2bee8e	0.04197555
246	0x3d4b2b42	0.0496018
247	0xbd4fcfad	-0.050735164
248	0xbcfff53f	-0.031244872
249	0x3b81ceaa	0.003961404
250	0xbc8bb78a	-0.017055292
251	0x3abfea38	0.0014641946
252	0x3c948707	0.018130792
253	0x3d04ae77	0.032392945
254	0xbd40c682	-0.04706431
255	0x3b02b591	0.0019944648

SRnet.IMDB1.0.c3.bias f4 [32]
0	0xbd310777	-0.04322001
1	0xbd05b98d	-0.03264766
2	0x3cca0d08	0.024664417
3	0xbd1361bd	-0.035981882
4	0x3c298cc1	0.0103485
5	0x3d5c8e9b	0.053846937
6	0x3caaec5e	0.020864662
7	0x3cb91d76	0.022597056
8	0x3d5eaaf3	0.05436225
9	0xbb484dca	-0.0030563944
10	0xbc82db7b	-0.015973797
11	0xbceb8f3e	-0.028754827
12	0x3cab2794	0.020892896
13	0xbb00266a	-0.0019554147
14	0xbce84a68	-0.028355792
15	0x3d2c9e78	0.042143315
16	0x3cf58797	0.02997188
17	0x3b35847f	0.0027697382
18	0xbc6f4d29	-0.014605799
19	0x3d61844b	0.055057805
20	0xbb098ec6	-0.002098964
21	0xb929ac1c	-0.00016181212
22	0xbbc49f62	-0.006000445
23	0xbcf28d6c	-0.02960845
24	0xbd7bf5d9	-0.061513755
25	0x3cb04b48	0.021520272
26	0x3c430866	0.011903858
27	0x3d8a6d25	0.06759099
28	0xbcd5ad52	-0.026083622
29	0x3ca1d61b	0.019755414
30	0xbc81a104	-0.015823849
31	0x3d404291	0.046938483

SRnet.IMDB1.0.c3.weight f4 [32, 24, 3, 3]
0	0x3d16d959	0.036828373
1	0x3cc68599	0.024233626
2	0x3d7f4859	0.062324855
3	0xbc566895	-0.013086458
4	0x3d10a0a3	0.035309445
5	0xbcb1596f	-0.02164909
6	0x3ce5c45b	0.028047731
7	0x3d0be0f8	0.034150094
8	0xbd101b03	-0.03518201
9	0x3c78ce18	0.015185855
10	0x3c0b86ca	0.008516023
11	0x3cfb4922	0.03067452
12	0xbd75c043	-0.05999781
13	0xbc8563b3	-0.016282892
14	0x3c866642	0.016406182
15	0x3d87dfff	0.06634521
16	0xbd538970	-0.051644742
17	0x3d7942f2	0.06085486
18	0x3d0c9127	0.034318116
19	0x3d59520e	0.05305677
20	0xbd39f21e	-0.045396917
21	0xb977be36	-0.00023626615
22	0x3d7f91fe	0.06239509
23	0xbc797fcd	-0.015228224
24	0xbc4a94ec	-0.012364607
25	0xbc5ba1b5	-0.013405253
26	0xbd8f4051	-0.06994689
27	0x3d432b17	0.047648516
28	0xbd8da81c	-0.0691683
29	0x3d0ec248	0.03485325
30	0xbd47980d	-0.04872899
31	0x3d16611e	0.036713712
32	0xbc98b516	-0.018641036
33	0xbd8bf097	-0.06832998
34	0x3d2eea21	0.04270375
35	0xbcf53eb1	-0.02993712
36	0x3d19b2a2	0.037523873
37	0xbd7c7c6c	-0.061642095
38	0xb9b346b7	-0.00034194227
39	0xbcfda2a0	-0.030961335
40	0x3ccd8c29	0.025091248
41	0x3d794449	0.060856137
42	0xbc4b6b6d	-0.012415749
43	0x3c059ce6	0.008155083
44	0x3d23761b	0.039907556
45	0x3982e0ed	0.00024963115
46	0x3bff2ad5	0.0077870884
47	0x3d49d833	0.04927845
48	0x3d66a76f	0.05631202
49	0xbca1e2bc	-0.019761436
50	0xbd0063c9	-0.031345163
51	0xbbec6375	-0.0072140046
52	0x3aca5afa	0.001543849
53	0xbc80c3d9	-0.015718387
54	0xbd5be998	-0.05368957
55	0xbd4a44f7	-0.049382176
56	0xbd439b5d	-0.047755588
57	0x3d7d5fd8	0.06185898
58	0xbcca7c56	-0.024717491
59	0x3c355e40	0.011069834
60	0xbd059028	-0.03260818
61	0xbc9bb2df	-0.01900619
62	0xbd00d4a8	-0.031452805
63	0x3d4ba240	0.04971528
64	0x3d543812	0.051811285
65	0xbd00959d	-0.031392682
66	0x3c82c81c	0.01596456
67	0x3d149001	0.036270145
68	0x3b8676d3	0.0041035204
69	0xbc857fa7	-0.016296221
70	0xbd1cec44	-0.038311258
71	0x39089c89	0.00013028285
72	0xbd72f77e	-0.05931806
73	0xbced0902	-0.02893496
74	0xbc84a32f	-0.016191093
75	0x3cb96381	0.022630455
76	0x3d68df8c	0.056853816
77	0xbc9f1bd8	-0.019422457
78	0x3c03aaf4	0.008036364
79	0x3daed2c5	0.08536295
80	0xbca6a5c0	-0.020342708
81	0x3cdbcded	0.026831592
82	0x3d8294db	0.06376048
83	0x3d3b5171	0.045731965
84	0x3d24b29d	0.0402094
85	0xbd5f0fe9	-0.054458532
86	0xbccba039	-0.024856674
87	0x3bf819c5	0.0075714313
88	0xbc4f331f	-0.012646466
89	0xbd8e4e45	-0.069485225
90	0xbd31649f	-0.04330885
91	0x3cd54108	0.026031986
92	0x3ddf9135	0.10916368
93	0xbd501e64	-0.050810233
94	0xbd83d4a4	-0.06437042
95	0x3d998ae5	0.07497195
96	0xbd887ef3	-0.06664839
97	0x3d1551cd	0.036454964
98	0x3e2b2784	0.16714293
99	0x3aca59c7	0.0015438133
100	0xbc59882a	-0.013277093
101	0xbd5fee66	-0.054670714
102	0x3cf2d237	0.029641254
103	0xbc913bdc	-0.017728738
104	0x3cd5ca29	0.026097374
105	0xbcee7301	-0.029107573
106	0xbd1643d2	-0.036685772
107	0x3ca13176	0.019676905
108	0x3d6195ad	0.055074383
109	0x3d1f30ef	0.038865026
110	0xbc3644e4	-0.011124823
111	0x3d83338b	0.064063154
112	0x3c1a0d1c	0.00940254
113	0xbcb4dfcb	-0.022079369
114	0x3d575aa5	0.05257668
115	0xbd4f5a5b	-0.05062328
116	0x3d3088d0	0.043099225
117	0xbd3248eb	-0.04352657
118	0xbad07132	-0.0015902875
119	0x3d013832	0.031547733
120	0x3cc04443	0.02347005
121	0x3ca21457	0.01978509
122	0xbcf19399	-0.029489325
123	0x3cbf849c	0.023378663
124	0xbbb385c5	-0.005478593
125	0xbb5b07b3	-0.0033421337
126	0xbd6bf3b9	-0.05760548
127	0xbbf1dd5b	-0.007381124
128	0x3cae9e84	0.02131582
129	0x3d66efdd	0.056381095
130	0xbd136b88	-0.03599122
131	0x3d6cfee1	0.05786026
132	0x3d8ff24f	0.070286386
133	0x3c02f901	0.0079939375
134	0x3d03a21e	0.03213703
135	0x3d738926	0.059456967
136	0xbd2ac488	-0.041691333
137	0x3d776cf5	0.060406644
138	0xbd7ee0ce	-0.06222611
139	0xbd8ae78a	-0.06782444
140	0x3d5af684	0.053457752
141	0x3cb7829d	0.022401148
142	0x3c0dee37	0.008662752
143	0xbd1f892f	-0.038949188
144	0xbd84b33a	-0.06479497
145	0xbccda3d6	-0.025102537
146	0x3d87bc53	0.06627717
147	0x3b695646	0.0035604401
148	0xbd8fbbeb	-0.070182644
149	0xbd50c95e	-0.05097329
150	0x3b9bf310	0.0047592
151	0x3c702c97	0.014659069
152	0x3d4b82e6	0.04968538
153	0x3d32005c	0.043457374
154	0x3cb36a40	0.02190125
155	0x3d8557fe	0.06510924
156	0x3d67bd54	0.05657704
157	0x3cb9fd98	0.02270393
158	0xbbe86d77	-0.0070931274
159	0x3ca246a7	0.01980908
160	0xbd4051c1	-0.046952967
161	0xbc5a6fb4	-0.013332296
162	0xbd2a2073	-0.041534852
163	0x3c7d57ca	0.015462825
164	0x3d13e7c9	0.03610972
165	0x3c21ddca	0.009879539
166	0x3ba2c943	0.00496784
167	0x3d811eea	0.063047245
168	0xbc23b429	-0.009991684
169	0xbab87282	-0.0014072212
170	0x3cfd1c63	0.030897325
171	0x3d4927be	0.049110167
172	0x3c751f91	0.014961139
173	0xbcf08a4c	-0.02936282
174	0x3d747046	0.059677385
175	0xbd0f3896	-0.034966074
176	0x3d1e178e	0.038596682
177	0x3d636c4b	0.055523198
178	0xbcaa2160	-0.020767868
179	0x3d542331	0.051791374
180	0xbc48437e	-0.012223123
181	0xbd48d722	-0.04903329
182	0xbdab4722	-0.08363177
183	0x3cff0430	0.031129926
184	0xbd69c13e	-0.057069056
185	0xbd81c554	-0.063364655
186	0x3d7bf525	0.061513085
187	0xbcc57789	-0.02410485
188	0x3ccb00af	0.0247806
189	0x3c83059b	0.015993884
190	0xbd2422b6	-0.040072165
191	0x3aba3078	0.0014205119
192	0xbca984f9	-0.02069329
193	0x3d74c8f0	0.05976194
194	0x3d503e32	0.050840564
195	0xbcf89591	-0.030344756
196	0x3c81b75b	0.015834501
197	0x3ce80077	0.028320534
198	0xbcf83243	-0.030297404
199	0x3d0c100e	0.034195
200	0x3bbde968	0.0057956465
201	0xbd438611	-0.047735278
202	0xbd4bf0f6	-0.049790345
203	0x3d2cc7e1	0.042182807
204	0xbd2fbaf2	-0.042902894
205	0x3ca88344	0.020570405
206	0xbd72d8b1	-0.059288684
207	0x3d187ef2	0.03723044
208	0x3d78919a	0.06068573
209	0x3d6f9e14	0.058500364
210	0x3c2b977a	0.010473127
211	0xbd0c637e	-0.03427457
212	0xbd68aa89	-0.05680326
213	0xbd5d8084	-0.05407764
214	0xbd88f567	-0.06687432
215	0xbccf4162	-0.025299732
216	0x3cf9cff7	0.030494673
217	0xbd72bb58	-0.059260696
218	0xbbf79449	-0.0075555188
219	0x3d988311	0.07446874
220	0xbca65a24	-0.020306654
221	0x3d644413	0.055728983
222	0x3d0f5f8a	0.035003223
223	0x3d1d5c2d	0.038417984
224	0x3cc2bee9	0.023772674
225	0xbd8fd96e	-0.07023893
226	0xbd840e20	-0.06448007
227	0xbdf17854	-0.11790529
228	0x3c3ebf79	0.01164233
229	0xbd5367ac	-0.05161254
230	0xbd6f3c60	-0.058407187
231	0xbd379f0d	-0.044829417
232	0xbbb193c2	-0.0054192254
233	0xbca97e21	-0.020690026
234	0x3da675be	0.08127926
235	0x3d26c12c	0.040711567
236	0xbd86459a	-0.06556244
237	0xbcf35c85	-0.029707203
238	0xbc1049ee	-0.008806689
239	0xbd5091be	-0.05092024
240	0x3ca3cb5f	0.019994436
241	0x3d37ab3d	0.04484104
242	0xbd9f6b3a	-0.07784124
243	0x3db47406	0.08811192
244	0x3d91f11d	0.07126067
245	0xbc66ea8c	-0.014094006
246	0xbd968682	-0.07349874
247	0xbc2bee45	-0.01049382
248	0xbdc1a89f	-0.0945599
249	0xbd86171e	-0.06547378
250	0xbb9bc286	-0.0047534136
251	0xbcf3be5a	-0.029753853
252	0xbcdc5758	-0.026897117
253	0xbd6e8444	-0.058231607
254	0xbdc2844e	-0.09497891
255	0x3d47f5dd	0.048818458

SRnet.IMDB1.0.c4.bias f4 [8]
0	0x3d843da7	0.06457072
1	0x3d33178a	0.04372362
2	0xbd7fb899	-0.062431905
3	0x3bbe7f14	0.0058134887
4	0xbc729de6	-0.014808154
5	0xbd6df123	-0.058091294
6	0x3ce42495	0.027849475
7	0xbc88523d	-0.016640777

SRnet.IMDB1.0.c4.weight f4 [8, 24, 3, 3]
0	0xbd6d45ca	-0.057927884
1	0x3c8ba40a	0.017045993
2	0x3d784910	0.060616553
3	0xbd8d0e34	-0.06887475
4	0x3ca0c032	0.019622896
5	0x3c2d6c7a	0.010584945
6	0xbd20b884	-0.039238468
7	0x3bd37628	0.0064532943
8	0x3dc0674d	0.09394703
9	0x3d7d82fc	0.061892495
10	0x3df83716	0.12119882
11	0x3d669f08	0.056304008
12	0x3e184cf0	0.148731
13	0x3c8870b0	0.016655296
14	0x3e7fe778	0.24990642
15	0x3bd3b91a	0.006461275
16	0xbd5f31c7	-0.05449083
17	0x3d0d4e4a	0.03449849
18	0x3d25eafc	0.0405073
19	0x3d91698d	0.0710021
20	0xbdaec35c	-0.085333556
21	0x3d802783	0.06257536
22	0x3c5e4142	0.013565363
23	0x3d001448	0.03126934
24	0x3c4d1e71	0.012519465
25	0x3d5f50d9	0.05452046
26	0xbd130e1f	-0.03590214
27	0x3e0921e6	0.13391837
28	0x3d81c9b2	0.063372985
29	0x3d265026	0.04060378
30	0x3e825cdf	0.2546148
31	0xbc5deeea	-0.013545731
32	0x3da229df	0.079181425
33	0x3de03a35	0.10948602
34	0x3c608145	0.013702695
35	0x3d79fd3d	0.061032522
36	0xbcc3a0cb	-0.023880383
37	0xbc13e412	-0.009026544
38	0x3d43abca	0.047771253
39	0x3bb57077	0.0055370885
40	0x3ccfdf0d	0.025374914
41	0x3c3a9cb4	0.0113899
42	0xbd4fc76a	-0.050727285
43	0xbd962b6c	-0.07332501
44	0xbc4de7e1	-0.012567491
45	0x3d0e15e4	0.034688845
46	0xbcd779c6	-0.026303183
47	0xbce2fd20	-0.02770859
48	0x3ce9ee0c	0.028555892
49	0xbd13137d	-0.035907257
50	0xbd80732f	-0.062719695
51	0x3cd3ba2a	0.025845606
52	0x3d4fe0ae	0.05075138
53	0xbafdd656	-0.0019366245
54	0x3c57c069	0.013168433
55	0x3d3a633f	0.045504805
56	0xbc8098e7	-0.01569791
57	0xbcb893eb	-0.02253147
58	0x3d2d19d4	0.04226096
59	0x3cc43b2c	0.023953997
60	0xbd44951a	-0.047993757
61	0x3d640bf1	0.05567545
62	0x3bfa294c	0.0076343175
63	0xbbf47c49	-0.007461105
64	0xbd65890c	-0.0560389
65	0xbd7ab071	-0.061203424
66	0x3db2fc99	0.087395854
67	0x3e09d9fc	0.1346206
68	0x3e200cd3	0.15629892
69	0x3d19d4e9	0.037556563
70	0x3db49f57	0.08819454
71	0xbd62e589	-0.055394683
72	0xbcce6b91	-0.025197776
73	0x3c445ccd	0.011985016
74	0xbd0799ba	-0.03310559
75	0xbd01348c	-0.031544253
76	0xbd7002ee	-0.058596544
77	0xbd844b0b	-0.06459626
78	0x3d237147	0.03990295
79	0xbdbff687	-0.09373193
80	0xbd6f1a64	-0.058374777
81	0x3ca20f58	0.019782707
82	0xbd99fe9a	-0.075192645
83	0xbb22262f	-0.0024741997
84	0xbd129d9c	-0.03579484
85	0x3d173180	0.03691244
86	0xbd7e5f18	-0.062102407
87	0x3c5f5dd1	0.013633207
88	0xbd323943	-0.04351164
89	0xbc3f4e26	-0.011676347
90	0x3cec3307	0.028832925
91	0x3d1b1ebd	0.03787111
92	0x3d73b65a	0.059500076
93	0x3cf4c2d7	0.029878063
94	0xbb65c424	-0.0035059536
95	0xbd3e05e7	-0.046392348
96	0xbd5c2b49	-0.053752217
97	0xbde97cda	-0.11400767
98	0x3d1a35c9	0.03764895
99	0x3d83f5ac	0.064433426
100	0xbdf3717c	-0.1188688
101	0x3c59a078	0.013282888
102	0xbbd0a7a8	-0.0063676424
103	0xbe29d3ef	-0.16584753
104	0x3d29b4d5	0.04143222
105	0x3b8ac258	0.0042345934
106	0x39ad7168	0.00033081626
107	0xbd189d3c	-0.037259325
108	0xbcbb81d4	-0.022889055
109	0xbd28c3d1	-0.04120237
110	0xbdd375ad	-0.10325179
111	0x3d6a8875	0.05725904
112	0x3d255321	0.04036248
113	0xbdac3952	-0.084093705
114	0xbd14c337	-0.036318984
115	0x3c21914f	0.009861304
116	0xbd779483	-0.060444366
117	0x3d397103	0.045273792
118	0xbb11e40f	-0.0022261178
119	0xbda7fab9	-0.082021184
120	0xbd4c7264	-0.04991378
121	0xbad04639	-0.0015890069
122	0xbdac43ab	-0.08411344
123	0xbca8b401	-0.020593645
124	0xbd8f61f5	-0.07001106
125	0xbe1b033d	-0.15137954
126	0x39b7b76c	0.0003504114
127	0x3d92df01	0.07171441
128	0xbdb03e98	-0.08605689
129	0x3dae79a9	0.085192986
130	0x3d22df43	0.0397637
131	0xbc61357d	-0.013745663
132	0x3d306725	0.043067116
133	0x3d0c67c6	0.034278654
134	0x3dd0cb35	0.10195009
135	0xbc792d4b	-0.015208553
136	0x3bbc7b5e	0.005752011
137	0xbb91ceb4	-0.0044496898
138	0xbc4c2c87	-0.012461788
139	0x3c3403dd	0.010987249
140	0xbcdf0bb4	-0.02722726
141	0xbbdf4d78	-0.006814655
142	0x3b48fb4d	0.0030667365
143	0x3c8175bc	0.01580321
144	0xbc70b6c6	-0.014692014
145	0xbcc12eed	-0.023581946
146	0x3d1e2b9b	0.038615804
147	0x3d80f442	0.062965885
148	0x3d8d7e56	0.06908862
149	0xbc6c8d9a	-0.014438057
150	0x3d086d8a	0.03330759
151	0xbdb4b0bc	-0.08822772
152	0x3d274b1f	0.040843125
153	0x3df70ac7	0.120626025
154	0xbdf8896c	-0.12135586
155	0x3e450448	0.19239914
156	0x3d3b80d2	0.04577715
157	0xbe50db35	-0.20396121
158	0x3caf15ca	0.021372695
159	0xbdfebad8	-0.12437981
160	0xbe944f14	-0.28966582
161	0xbe1f7063	-0.15570216
162	0xbd92b722	-0.07163836
163	0x3baa47c6	0.0051965443
164	0xbcf20899	-0.029545115
165	0xbd295f7f	-0.041350838
166	0xbb178a68	-0.0023123268
167	0x3d1fc77d	0.039008606
168	0xbda13f75	-0.078734316
169	0x3b5dbb8f	0.0033833717
170	0xbd773049	-0.060348783
171	0x3d89846c	0.067147106
172	0x3c011e64	0.007880781
173	0xbba4b82c	-0.005026838
174	0x3d0ef79b	0.034904104
175	0xbcd7d7b6	-0.026347976
176	0xbc554da3	-0.013018998
177	0xbd2b6ec4	-0.04185368
178	0xbdb0989b	-0.08622857
179	0xbd5f77f4	-0.054557756
180	0x3ce8f1ad	0.028435552
181	0xbd0aacef	-0.03385633
182	0x3d82b424	0.06382015
183	0x3d855da3	0.065120004
184	0x3c690a0d	0.014223588
185	0x3db18b71	0.086691745
186	0xbcadcd71	-0.021216126
187	0x3cb4d0ee	0.022072282
188	0x3d1b4c17	0.03791436
189	0x3d2e0091	0.04248101
190	0x3c9e3e42	0.019316796
191	0xbc3cbc97	-0.011519573
192	0x3c66a29c	0.014076855
193	0xbd0a9502	-0.03383351
194	0x3ccaff3d	0.02477991
195	0xbd917f81	-0.071043976
196	0xbcd47755	-0.025935808
197	0x39c2f22d	0.00037182998
198	0xbe09cb24	-0.13456398
199	0xbe1171b4	-0.1420353
200	0x3c839617	0.01606278
201	0xbe3ddfb6	-0.1854237
202	0xbdb90982	-0.090350166
203	0xbd45bd56	-0.048276268
204	0xbc8ff71a	-0.017573882
205	0xbe13d0b4	-0.14435083
206	0xbdca29aa	-0.09871228
207	0xbd825dee	-0.06365572
208	0xbcd2a927	-0.025715424
209	0x3cc049e1	0.023472728
210	0x3c3bdc0f	0.01146604
211	0x3d0beec3	0.034163248
212	0x3d40aa51	0.047037426
213	0x3d139320	0.03602898
214	0x3d02e0e3	0.03195275
215	0x3d31eb77	0.043437447
216	0xbda95390	-0.082678914
217	0x3d861e07	0.06548696
218	0xbd5f34e9	-0.05449382
219	0xbdc6ba8d	-0.097035505
220	0x3d9bab05	0.07600979
221	0x3ca230a2	0.01979858
222	0x3cd78cbb	0.026312223
223	0xbaa92b77	-0.001290663
224	0xbbba0013	-0.0056762784
225	0x3d599703	0.05312253
226	0x3c937c72	0.018003676
227	0x3e3abdcc	0.18236464
228	0x3c7571a4	0.014980707
229	0x3c43aa44	0.01194245
230	0xbdb7518e	-0.08951102
231	0x3dab2475	0.08356563
232	0x3e61a1f1	0.22034432
233	0x3d83e6c2	0.06440498
234	0xbd0f8fa7	-0.035049107
235	0xbc15a73a	-0.009134108
236	0xbc2b75bd	-0.010465083
237	0x3d84b7b0	0.06480348
238	0xbd6090ed	-0.054825712
239	0xbd004916	-0.0313197
240	0xbc9c6fe9	-0.019096332
241	0xbd2f3b2c	-0.04278104
242	0x3cad617a	0.021164645
243	0xbe0c743b	-0.13716213
244	0xbb89d604	-0.004206421
245	0x3df79039	0.12088055
246	0xbe3baf89	-0.1832868
247	0x3e1474f5	0.1449774
248	0x3cb01587	0.02149464
249	0xbd3c5ec9	-0.04598883
250	0x3e2aee81	0.16692545
251	0x3e2058e9	0.15658917
252	0x3d723800	0.059135437
253	0xbb72db8d	-0.0037057132
254	0xbd6d4f46	-0.05793693
255	0xbd12d2fe	-0.03584575

SRnet.IMDB1.0.c5.bias f4 [32]
0	0xbd5236fa	-0.05132196
1	0xbd84a89f	-0.064774744
2	0xbe1a3e9c	-0.15062946
3	0xbd13f865	-0.03612556
4	0x3ded700a	0.115936354
5	0x3d3e06b7	0.046393123
6	0x3c09997f	0.008398413
7	0x3e25f1a0	0.16205454
8	0xbdf74991	-0.120745786
9	0xbe0db92c	-0.13840169
10	0xbd54b773	-0.051932763
11	0x3d95622d	0.07294116
12	0xbde78ce7	-0.11306172
13	0xba7b1057	-0.0009577325
14	0xbd8f1812	-0.06987013
15	0xbbc4ff05	-0.006011846
16	0xbe1771e5	-0.14789541
17	0x3db7766c	0.08958134
18	0x3db880f0	0.09008968
19	0xbd104725	-0.0352241
20	0xbdf8a10d	-0.12140093
21	0xbe00c599	-0.12575378
22	0x3e1c078f	0.15237258
23	0x3e254e83	0.16143231
24	0x3dea50c4	0.11441186
25	0x3d285371	0.0410952
26	0x3dd5732c	0.10422358
27	0xbda70959	-0.0815608
28	0x3dd6bf75	0.10485736
29	0xbd85392e	-0.06505047
30	0x3e22e15e	0.15906283
31	0x3dcb8379	0.09937186

SRnet.IMDB1.0.c5.weight f4 [32, 32, 1, 1]
0	0xbd905aca	-0.07048567
1	0x3dd10e43	0.10207798
2	0x3dbbc436	0.09168284
3	0xbd474736	-0.048651896
4	0x3e18d1a5	0.14923723
5	0xbe22f6ab	-0.15914409
6	0xbd48addc	-0.04899393
7	0xbe5a947a	-0.21345702
8	0x3e8ac506	0.27103442
9	0x3becc6f3	0.007225865
10	0x3d8cbf51	0.06872428
11	0xbaad9613	-0.0013243578
12	0x3de87995	0.11351315
13	0x3d9d78d1	0.076890595
14	0x3e85bfac	0.26122797
15	0x3de94d31	0.11391676
16	0x3d5b9c84	0.05361606
17	0x3dcbf6a0	0.09959149
18	0xbe49a66b	-0.1969239
19	0x3e0546b9	0.1301526
20	0x3d93eec4	0.07223275
21	0x3dc929cc	0.09822425
22	0x3df4c007	0.11950689
23	0x3e36db6e	0.17857143
24	0xbd8dcc5d	-0.06923745
25	0xbb9f36d5	-0.0048588314
26	0x3d27ceb7	0.040968623
27	0xbe46c9ba	-0.1941289
28	0xbe2a5cbc	-0.16636938
29	0x3e6ab6b3	0.22921257
30	0x3b3da702	0.0028938656
31	0xbe10065d	-0.14064927
32	0x3dc89f6b	0.097960316
33	0xbd89ee11	-0.06734861
34	0xbdbc30f6	-0.09189026
35	0xbdb76ebb	-0.08956667
36	0x3e1e4450	0.15455747
37	0xbdcd5c3e	-0.100273594
38	0xbd31ac35	-0.04337712
39	0x3cbf1750	0.023326546
40	0xbd911948	-0.070849
41	0x3ddec1bb	0.10876795
42	0xbd0a3064	-0.033737555
43	0x3e23762e	0.1596305
44	0xbe08c4b7	-0.13356291
45	0xbe224494	-0.15846473
46	0x3e156fe6	0.14593467
47	0x3e204bbe	0.15653893
48	0xbe08554e	-0.13313791
49	0xbd30e9e6	-0.043191813
50	0xbdf07b3a	-0.117422536
51	0x3d4a0e52	0.049330063
52	0xbe25ae92	-0.16179875
53	0xbe201f17	-0.1563686
54	0x3db68041	0.08911181
55	0xbe0a58af	-0.13510393
56	0xbd95cd2c	-0.07314524
57	0x3dd47a08	0.10374838
58	0x3c9d0321	0.019166531
59	0x3dc428ae	0.095780715
60	0xbe16fa15	-0.14743836
61	0x3de9dbb2	0.11418857
62	0x3dd0bbfb	0.101921044
63	0x3d77da15	0.060510714
64	0x3df4ad52	0.11947121
65	0xbcb0eccb	-0.021597287
66	0x3e2c5855	0.16830571
67	0xbd7b70c5	-0.061386842
68	0xbd85ac4d	-0.065270044
69	0xbd226c3a	-0.039653994
70	0x3e38323d	0.17987914
71	0xbcb8e13f	-0.022568343
72	0x3d18878d	0.037238646
73	0xbdcb8b8c	-0.09938726
74	0xbd495fa1	-0.049163464
75	0xbe080edd	-0.1328692
76	0x3e204029	0.15649475
77	0x3d236959	0.03989539
78	0xbe1ebe9f	-0.15502404
79	0xbe0e6ddf	-0.139091
80	0x3d8690a1	0.065705545
81	0x3d869647	0.06571632
82	0xbe212794	-0.15737754
83	0x3e78a67e	0.24282262
84	0x3e41bcc7	0.18919669
85	0x3c38e004	0.011283878
86	0x3dd65221	0.104648836
87	0xbda1f655	-0.07908312
88	0xbd666ca2	-0.056255944
89	0xbe21e09c	-0.15808338
90	0x3d4435c9	0.047902856
91	0x3dc4f801	0.096176155
92	0xbdde76e3	-0.108625196
93	0x3d6f8069	0.05847207
94	0xbdd444cc	-0.103646845
95	0x3e075082	0.13214305
96	0xbda6818c	-0.08130178
97	0x3dde97e8	0.108688176
98	0xbe6d4ea4	-0.2317453
99	0x3b41a0cc	0.0029545305
100	0xbe132936	-0.1437119
101	0xbda64d3f	-0.08120202
102	0x3a8f7750	0.0010945592
103	0x3d497c4c	0.049190804
104	0xbcb5bb91	-0.022184165
105	0xbdb12fe9	-0.08651716
106	0xbdc9281a	-0.09822102
107	0xbdb64d1b	-0.089014255
108	0xbc956526	-0.018236708
109	0xbcab9db0	-0.020949215
110	0xbe19d520	-0.15022707
111	0xbe040e98	-0.12896192
112	0x3e58b83b	0.21164028
113	0x3bfb58de	0.007670506
114	0xbd19b098	-0.03752193
115	0xbc1b07aa	-0.0094622765
116	0x3e36c5e9	0.17848934
117	0xbdf4c6b2	-0.119519606
118	0xbde9b63a	-0.1141171
119	0xbdca6cea	-0.09884055
120	0xbbf38250	-0.007431306
121	0x3e22fb59	0.15916194
122	0x3db21a0e	0.08696376
123	0x3de0cd5f	0.109766714
124	0xbb9ce076	-0.0047875
125	0xbdc9eb3d	-0.09859321
126	0x3e11b0c1	0.14227583
127	0x3e1d4f15	0.15362199
128	0xbd2a11a2	-0.041520722
129	0x3dabe6a3	0.083936
130	0x3d02e093	0.031952452
131	0xbdfd0798	-0.12354964
132	0x3d469c62	0.048488982
133	0xbb7fb717	-0.0039019042
134	0x3e18e9b8	0.14932907
135	0xbe1eacc8	-0.15495598
136	0x3d580033	0.052734565
137	0xbe43051d	-0.1904492
138	0xbdb4fc25	-0.08837155
139	0xbdd0798f	-0.101794355
140	0x3e3c74dc	0.18403953
141	0x3e2f9feb	0.17150848
142	0xbe0c1417	-0.13679539
143	0xbd8bb532	-0.0682167
144	0xbe0fa796	-0.14028773
145	0xbcb50847	-0.022098674
146	0xbe3b259c	-0.18276066
147	0xbde66110	-0.11248982
148	0xbe48245f	-0.19545124
149	0xbdc2d538	-0.095133245
150	0x3d8ab465	0.06772689
151	0x3e4a6a66	0.1976715
152	0xbe86b0aa	-0.2630666
153	0x3da7041d	0.081550814
154	0x3c2caaa7	0.010538734
155	0xbd133e6a	-0.035948195
156	0x3db95a2b	0.09050401
157	0x3e191325	0.1494871
158	0xbc7f0592	-0.015565293
159	0x3ca516a3	0.020152396
160	0xbe311996	-0.17294917
161	0xbe13be1d	-0.14427991
162	0x3e01b8e2	0.12668183
163	0x3e0a0bec	0.1348111
164	0x3d4f452e	0.050603084
165	0x3d8ebf79	0.06970114
166	0x3cf66d36	0.030081373
167	0x3d534887	0.05158284
168	0x3d5ecc02	0.054393776
169	0x3e1786f1	0.1479757
170	0x3dda29bb	0.10652491
171	0x3df555a9	0.11979229
172	0xbda81c17	-0.08208483
173	0x3d2743fd	0.040836323
174	0x3d1a99be	0.037744276
175	0xbca44872	-0.020054076
176	0x3c8950fb	0.016762247
177	0x3de21958	0.1103999
178	0x3e2b7cfe	0.167469
179	0xbd24cc4d	-0.0402339
180	0xbdb9ef95	-0.090789
181	0xbd12553d	-0.03572582
182	0xbdbad692	-0.09122957
183	0xbe234caf	-0.15947221
184	0xbe007906	-0.12546167
185	0x3d8c11a0	0.06839299
186	0xbd9e8996	-0.07741086
187	0xbc3d8620	-0.011567622
188	0xbe0410b3	-0.12896995
189	0xbe2b40e4	-0.16723973
190	0x3e1cd02f	0.1531379
191	0x3e175372	0.14777926
192	0x3d1150e8	0.03547755
193	0x3dea2218	0.11432284
194	0x3dbb092c	0.09132609
195	0xbdf9b929	-0.121935196
196	0x3db8be1f	0.09020638
197	0x3cd63a62	0.026150886
198	0xbe24fcc9	-0.16112055
199	0xbd4071c6	-0.046983503
200	0x3e128b2e	0.14310905
201	0x3dc0f8a9	0.09422428
202	0x3cca47f8	0.02469252
203	0xbbc24f04	-0.0059298296
204	0xbe3689ed	-0.17826052
205	0xbda23dae	-0.07921921
206	0x3e33c6fc	0.17556375
207	0x3e2210a1	0.15826656
208	0x3d9ebffd	0.077514626
209	0xbe5cbd01	-0.21556474
210	0xbe2b6067	-0.16735993
211	0x3d9f5da2	0.07781531
212	0xbd621496	-0.055195414
213	0xbdf64676	-0.12025158
214	0xbc52c4cd	-0.012864304
215	0xbb82f308	-0.0039962567
216	0x3d9fb3de	0.07797979
217	0xbdab0af3	-0.08351698
218	0xbe05ce92	-0.13067082
219	0x3e080f17	0.13287006
220	0xbe22f57f	-0.15913962
221	0xbdb9bf33	-0.090696715
222	0xbdfb9ad8	-0.122853935
223	0xbcb24e8d	-0.021765972
224	0xbc341968	-0.010992385
225	0xbe2be7b2	-0.16787603
226	0xbda65f3c	-0.08123633
227	0xbae65253	-0.0017572142
228	0x3e1d816c	0.15381402
229	0x3dcbdeed	0.09954629
230	0xbd711148	-0.05885437
231	0xbd516f01	-0.051131252
232	0xbe134cf9	-0.14384831
233	0x3df9e0c6	0.12201075
234	0xbe2e35b2	-0.1701267
235	0x3db66f1f	0.089079134
236	0xbe416f2b	-0.18890063
237	0x3db2369d	0.08701823
238	0x3dc25115	0.094881214
239	0xbd27ea47	-0.04099491
240	0x3d0fc779	0.03510234
241	0x3d3405b3	0.043950748
242	0xbd3eaf3f	-0.046553846
243	0x3e6d670f	0.23183845
244	0xbcf94327	-0.030427529
245	0x3dc7486f	0.097306125
246	0xbde73898	-0.11290091
247	0xbe09babd	-0.13450141
248	0x3d3693ad	0.04457443
249	0xbdb60581	-0.088877685
250	0x3d567df5	0.052366216
251	0x3e21927b	0.15778534
252	0x3d1dec21	0.03855527
253	0xbdb1d8a3	-0.08683898
254	0x3dd1a8cd	0.10237274
255	0x3a9f5edc	0.0012159008

SRnet.IMDB1.0.cca.conv_du.0.bias f4 [2]
0	0x3e3037ed	0.17208834
1	0x3e2cfdee	0.16893741

SRnet.IMDB1.0.cca.conv_du.0.weight f4 [2, 32, 1, 1]
0	0xbc87096e	-0.016483989
1	0xbc15cae5	-0.009142612
2	0xbc6eaffc	-0.014568325
3	0x3db2da77	0.08733075
4	0x3e372386	0.17884645
5	0xbd85dd07	-0.06536298
6	0xbcf7e71d	-0.03026157
7	0xbe0c0066	-0.13672027
8	0xbcf6f18c	-0.030144475
9	0x3ce6294c	0.028095864
10	0xbc04fe7b	-0.0081173135
11	0xbe1d8fb6	-0.15386853
12	0xbd34ddb0	-0.04415673
13	0x3e4dac85	0.20085342
14	0xbca6edf3	-0.020377135
15	0xbdb0af1e	-0.08627151
16	0x3d3e0b38	0.046397418
17	0xbd10e7c6	-0.035377286
18	0x3e182ec5	0.14861591
19	0x3d9eedd7	0.07760208
20	0xbc93bd6b	-0.018034657
21	0xbdecb8cf	-0.11558687
22	0x3d12a674	0.035803273
23	0xbc2eb57d	-0.010663387
24	0x3dbf5b84	0.09343627
25	0xbb81fe3b	-0.003967074
26	0x3de796cb	0.11308058
27	0xbdbdb9c9	-0.09263951
28	0x3d4246b4	0.04743071
29	0x3db31718	0.08744639
30	0xbd8a1744	-0.06742719
31	0x3cfca362	0.030839626
32	0xbe3c5470	-0.18391585
33	0x3e1c5a80	0.15268898
34	0xbc8c91d8	-0.017159387
35	0xbbca7e29	-0.0061795902
36	0x3d86c4e4	0.06580523
37	0xbe13e0ed	-0.14441271
38	0x3d99001e	0.074707255
39	0xbe31692e	-0.17325279
40	0x3dc7eb28	0.09761649
41	0x3cae6852	0.021289978
42	0xbdb884b4	-0.09009686
43	0x3ce72ee3	0.0282206
44	0x3caf7451	0.021417769
45	0xbe17240d	-0.14759846
46	0x3e1ef84f	0.1552441
47	0xbde31b34	-0.11089173
48	0xbd8dced2	-0.069242135
49	0x3e3e400c	0.1857912
50	0x3e2f3300	0.17109299
51	0x3db8d8bd	0.090257145
52	0x3ca9ed9e	0.020743188
53	0x3d8fbdbd	0.070186116
54	0x3c74eb6f	0.01494871
55	0x3d81b50f	0.06333362
56	0xbddf5d72	-0.10906495
57	0x3e308b34	0.17240602
58	0xbdda4c9f	-0.106591456
59	0xbe14c2fe	-0.14527509
60	0xbd8e349f	-0.069436304
61	0xbd71f76b	-0.059073847
62	0xbe200c24	-0.15629631
63	0x3c859448	0.016306058

SRnet.IMDB1.0.cca.conv_du.2.bias f4 [32]
0	0x3f1e1dee	0.6176442
1	0x3efa92ba	0.48940068
2	0xbe471e1c	-0.1944508
3	0xbe9852f6	-0.29750794
4	0x3ea6b3fe	0.32559198
5	0x3f05576a	0.5208651
6	0xbec03d9c	-0.37547004
7	0x3eecd013	0.46252498
8	0xbe2c9d6b	-0.16856925
9	0x3eb2c8ad	0.34918728
10	0xbe656c7f	-0.22404669
11	0xbea0af1b	-0.31383595
12	0xbe8fbc17	-0.2807319
13	0xbe35bee6	-0.17748603
14	0xbe751e9b	-0.23937456
15	0xbe6baf00	-0.23015976
16	0xbe03fd2d	-0.12889548
17	0x3f5da7b7	0.8658404
18	0xbe2f8810	-0.17141747
19	0xbea98cc7	-0.33115217
20	0xbf124b11	-0.5714579
21	0x3f04304a	0.51636183
22	0x3f30f710	0.6912699
23	0xbed1fcac	-0.41013086
24	0x3efc2f41	0.49254802
25	0x3ec342ef	0.38137004
26	0x3f02a7fa	0.5103756
27	0xbe55ada4	-0.2086702
28	0x3ef0be21	0.47020057
29	0xbe554490	-0.20826936
30	0x3eb77a02	0.35835272
31	0x3e20e596	0.1571258

SRnet.IMDB1.0.cca.conv_du.2.weight f4 [32, 2, 1, 1]
0	0xbe5a7461	-0.21333458
1	0x3e79101b	0.2432255
2	0xbd1f223e	-0.038851015
3	0x3e4bc6b0	0.19900012
4	0xbd4b5773	-0.049643945
5	0x3eea675a	0.45781976
6	0x3ed2dbd3	0.41183338
7	0x3efff05f	0.49988076
8	0x3e6e6ebb	0.23284428
9	0x3f357bf4	0.7089226
10	0x3f0e8cec	0.5568378
11	0x3f216fa9	0.63061005
12	0xbef0175f	-0.4689283
13	0xbeb4edc4	-0.3533765
14	0x3f057306	0.52128637
15	0x3f39d00c	0.7258308
16	0x3f2f68be	0.685192
17	0xbe392544	-0.18080622
18	0x3f138ddb	0.5763833
19	0xbd4cefdc	-0.050033435
20	0xbe7278bd	-0.2367887
21	0x3f1a68e5	0.60316306
22	0xbee7e721	-0.45293525
23	0x3f22b20a	0.63552916
24	0xbc6032a1	-0.013683946
25	0xbe3c5e97	-0.18395458
26	0xbebb780e	-0.36615032
27	0x3ec1ba8a	0.3783763
28	0x3efed88c	0.49774587
29	0xbea5bf89	-0.32372692
30	0x3f0f4cb7	0.5597643
31	0xbf184ebd	-0.59495145
32	0xbee588d4	-0.44830954
33	0xbf29b732	-0.6629516
34	0x3e18adf4	0.14910108
35	0xbe9f8c30	-0.31161642
36	0x3f2a6179	0.6655498
37	0x3f14b152	0.5808307
38	0x3f3273b0	0.69707775
39	0xbe0012fe	-0.12507245
40	0x3ec5f2dc	0.3866185
41	0x3ecb896b	0.3975328
42	0x3f2e5c28	0.6810937
43	0xbccfb9ca	-0.025357146
44	0x3ec161c2	0.37769896
45	0xbeab7b59	-0.33492544
46	0xbea997b6	-0.3312356
47	0xbf0a6e75	-0.54074794
48	0x3e0339b8	0.12814987
49	0xbddc2e35	-0.10751001
50	0x3f2adaa9	0.667399
51	0x3dfb6690	0.122754216
52	0xbdbf7648	-0.09348732
53	0x3ee42403	0.44558725
54	0xbed24ecc	-0.41075742
55	0x3d26b85c	0.040703163
56	0xbe8615eb	-0.26188597
57	0xbf24253a	-0.64119303
58	0xbea6c3d3	-0.32571277
59	0xbe407b38	-0.18797004
60	0xbeae391d	-0.3402795
61	0xbe0fe74c	-0.14053077
62	0xbe3b4602	-0.18288425
63	0x3f237a9e	0.63858974

SRnet.IMDB2.0.c1.bias f4 [32]
0	0x3ce84ae6	0.028356027
1	0x3d48df4b	0.049041074
2	0xbd0a20e2	-0.033722766
3	0xbc944cd4	-0.01810304
4	0x3c560f87	0.013065225
5	0xbccf1b83	-0.025281673
6	0xbd479ac2	-0.048731573
7	0x3cacac34	0.021078207
8	0x3d3e3434	0.046436504
9	0xbd07796c	-0.03307478
10	0xbd178efd	-0.0370016
11	0x3d045a9b	0.03231297
12	0xbab1ea0c	-0.001357378
13	0x3d18a100	0.037262917
14	0x3c977973	0.018490529
15	0xbd3148c7	-0.043282297
16	0x3bb6f98e	0.0055839485
17	0x3c5d9efe	0.013526676
18	0x3d310707	0.043219592
19	0xbd06bbff	-0.03289413
20	0x3d0518d5	0.032494385
21	0x3cc52d5b	0.024069479
22	0xbd06f105	-0.032944698
23	0xbc57b543	-0.013165775
24	0x3ca05b20	0.019574702
25	0x3c865a4b	0.016400477
26	0x3d4cce0e	0.050001197
27	0xbb32cb98	-0.0027281996
28	0x3d2f37bd	0.042777766
29	0xbcf85ab7	-0.030316694
30	0xbd82b20d	-0.06381617
31	0x3ca08f17	0.01959948

SRnet.IMDB2.0.c1.weight f4 [32, 32, 3, 3]
0	0x3d65f904	0.056145683
1	0xbd052583	-0.032506477
2	0xbd860b64	-0.06545141
3	0x3d1a5f90	0.03768879
4	0xbd152473	-0.036411714
5	0xbd05a3ae	-0.0326268
6	0x3c939d81	0.01801944
7	0x3c86fad2	0.016477022
8	0x3cb1c266	0.021699142
9	0xbcec1c43	-0.02882207
10	0xbb799ef2	-0.0038089124
11	0x3c929f9a	0.01789837
12	0xbc41405e	-0.0117951315
13	0x3ccc3d96	0.02493171
14	0x3c9ed5d7	0.019389076
15	0xbc99b857	-0.018764658
16	0x3a9cd297	0.0011964616
17	0xbd5a4d9e	-0.053296678
18	0x3caaf997	0.020870967
19	0x3d9ca473	0.07648554
20	0x3d1eba03	0.038751613
21	0x3d0a71a2	0.033799775
22	0x3c991f7b	0.018691769
23	0xbc8fe039	-0.017562972
24	0x3c7d94ac	0.015477341
25	0x3bb20e89	0.0054338616
26	0x3d01bddb	0.0316752
27	0x3c13f0d3	0.009029585
28	0x3bfd366b	0.0077274344
29	0xbc9afdc4	-0.018919833
30	0xbd8df9bb	-0.06932398
31	0xbc52e7cd	-0.012872648
32	0x3d82fdd8	0.06396073
33	0x3c267809	0.010160455
34	0xbc4d5b8b	-0.012534033
35	0x3db6bbff	0.08922576
36	0xbb0b3bc2	-0.0021245335
37	0xba937786	-0.0011250831
38	0x3ca92b2e	0.020650472
39	0x3c8ce44e	0.017198708
40	0x3c43c4c6	0.01194877
41	0xbcdafb42	-0.026731137
42	0x3ce443fe	0.027864452
43	0x3c9dcfbc	0.019264095
44	0x3c68b48b	0.014203201
45	0x3cda2fc3	0.026634103
46	0x3d8d5c5b	0.06902381
47	0x3d8e8ef2	0.069608584
48	0xbd378b70	-0.044810712
49	0xbd3baf83	-0.045821678
50	0xbbbbfbad	-0.005736789
51	0xbd43dd69	-0.047818575
52	0x3be09894	0.006854126
53	0x3c41257b	0.011788721
54	0x3d13dd8e	0.036099963
55	0xbd8caac7	-0.06868511
56	0x3d091143	0.033463728
57	0x3c42128f	0.011845245
58	0xbd48141a	-0.048847295
59	0x3c374830	0.011186644
60	0xbd0f03c3	-0.034915697
61	0x3d1ffbc7	0.039058473
62	0xbd6178c0	-0.055046797
63	0x3d1c933d	0.038226355
64	0x3d79fc5d	0.061031688
65	0x3d143d88	0.036191493
66	0x3c07a173	0.008278239
67	0x3d5fdd63	0.05465449
68	0x3cbc0486	0.022951376
69	0xbb7faae1	-0.0039011764
70	0xbc6aabcf	-0.014323189
71	0xbcb07f3b	-0.021545043
72	0xbd586c12	-0.05283744
73	0xbbff5ec0	-0.0077932775
74	0x3bcdb026	0.006277102
75	0xbc55574e	-0.013021303
76	0x3d38eaf0	0.04514593
77	0xbd41646a	-0.047214903
78	0x3d925aa3	0.07146194
79	0x3d4475b7	0.047963824
80	0xbd4ca222	-0.04995931
81	0x3d7c97f5	0.061668355
82	0xbc9e1dae	-0.019301262
83	0x3b4c51e7	0.0031176747
84	0x3d846876	0.06465237
85	0x3d2672f1	0.04063696
86	0x3cc73bad	0.024320448
87	0xbc88231f	-0.01661831
88	0xbca90fc8	-0.020637408
89	0xbbc45ead	-0.0059927315
90	0xbda91c72	-0.08257379
91	0x3c41376f	0.011793002
92	0x3d0ec8aa	0.034859337
93	0xbc873ea8	-0.016509369
94	0xbd78af33	-0.060713958
95	0x3cfb616a	0.0306861
96	0xbcb243ae	-0.021760788
97	0xbb878431	-0.0041356315
98	0x3a877a8f	0.0010336208
99	0x3d2d2dc9	0.042279992
100	0x3d79a16a	0.060944952
101	0xbc71cbac	-0.014758032
102	0xbd519898	-0.051170915
103	0x3d3860f6	0.045014344
104	0xbd7cc335	-0.0617096
105	0x3d5590a3	0.05213989
106	0x3ba149a2	0.004922108
107	0xbd74ae57	-0.059736576
108	0x3d5dd065	0.05415382
109	0x3ca0eeba	0.019645084
110	0xbd2efbae	-0.04272049
111	0x3d8aaa5a	0.06770773
112	0x3d098fb1	0.0335843
113	0x3c344134	0.011001874
114	0x3d56f340	0.052478075
115	0x3d3560c0	0.04428172
116	0xbbe0f4d7	-0.0068651247
117	0xbd12c3ad	-0.035831142
118	0xbd0bc5c6	-0.03412416
119	0x3d8aba30	0.06773794
120	0xbd8a8a7f	-0.06764697
121	0xbcb2b950	-0.02181688
122	0x3d9c0b8d	0.07619391
123	0x3ba2dc2f	0.0049700956
124	0xbd37629c	-0.044771776
125	0xbd51238c	-0.05105929
126	0x39ac873e	0.0003290716
127	0x3d0d9d0b	0.034573596
128	0xbcb6a906	-0.022297394
129	0xbd585824	-0.052818432
130	0xbd2f19dc	-0.04274927
131	0xbd6a61ba	-0.057222106
132	0xbd36727b	-0.04454277
133	0x3b90ebc9	0.004422639
134	0x3ccf69fa	0.025319088
135	0x3df837c1	0.12120009
136	0x3d9caf41	0.076506145
137	0x3da2c1f9	0.079471536
138	0xbce23509	-0.02761318
139	0x3c37a30a	0.011208305
140	0x3cbd9fc7	0.023147477
141	0x3cbffaa0	0.023434937
142	0x3c41107a	0.0117837135
143	0xbd573d77	-0.05254885
144	0xbbeb2baa	-0.007176836
145	0x3d3ab311	0.045580927
146	0xbd441d1a	-0.047879316
147	0x3ce08e39	0.027411567
148	0xbcbea90a	-0.023273963
149	0x3d5d0ac7	0.053965356
150	0x3d56642c	0.052341625
151	0xbcf76949	-0.030201571
152	0xbc4c746d	-0.01247893
153	0xbd807a07	-0.06273275
154	0x3d21986c	0.039452
155	0x3d6e61cb	0.05819873
156	0xbd4fc414	-0.050724104
157	0xbcda5bd8	-0.026655123
158	0xbd158126	-0.03650012
159	0xbd4102f4	-0.047121957
160	0xbd6d7b17	-0.057978716
161	0xbc442bd7	-0.011973343
162	0xbca523a3	-0.020158594
163	0x3cec2a7a	0.028828848
164	0xbd0eaf65	-0.034835238
165	0xbd4cdd5a	-0.050015785
166	0xbd7d463d	-0.061834563
167	0xbbe28277	-0.0069125253
168	0x3d6740d4	0.05645831
169	0xbd43a9c2	-0.047769316
170	0x3ce2759c	0.027643971
171	0xbd629310	-0.05531603
172	0xbd8b745d	-0.06809304
173	0xbc944fdd	-0.018104488
174	0x3d1d7289	0.038439307
175	0xbce70320	-0.028199732
176	0xbdbb819d	-0.09155581
177	0x3d2b8db9	0.041883204
178	0x3d63ba22	0.055597432
179	0xbd778c11	-0.060436312
180	0x3cdbaa64	0.026814647
181	0xbd53220a	-0.051546134
182	0xbd278734	-0.040900424
183	0xbbda9a42	-0.006671221
184	0x3d2d7aec	0.042353556
185	0xbd84b34c	-0.06479511
186	0x3c544632	0.012956189
187	0xbcb31a11	-0.021863015
188	0xbd0b5094	-0.034012392
189	0xbd6be0ca	-0.057587422
190	0xbd14f25c	-0.036363944
191	0xbd1401a4	-0.036134377
192	0xbd68d53c	-0.05684398
193	0xbd93c8bc	-0.072160214
194	0x3d455e63	0.048185717
195	0xbc710ef6	-0.01471304
196	0xbd44f123	-0.04808153
197	0xbc7cdc62	-0.015433403
198	0x3d0c4715	0.034247477
199	0x3b31b7ef	0.002711769
200	0xbd03070d	-0.031989146
201	0x3d16a0da	0.036774494
202	0xbd4c825a	-0.049929
203	0xbd26f3ba	-0.04075978
204	0x3d0c8ed3	0.034315895
205	0xbc950d3b	-0.018194785
206	0x3c92204b	0.017837664
207	0x3b9c3641	0.0047672098
208	0x3a179aa5	0.00057832367
209	0xbd45c71b	-0.048285585
210	0x3be0e103	0.006862761
211	0xbbb8d769	-0.0056409133
212	0x3d54bf6c	0.051940367
213	0x3d9a88fa	0.075456575
214	0x3ba9027a	0.005157766
215	0xbcbfd290	-0.023415834
216	0xbccbe325	-0.024888584
217	0x3bf2351c	0.007391585
218	0x3bb0e3b5	0.0053982385
219	0x3dce5968	0.10075647
220	0xbc69794d	-0.014250112
221	0x3d3f0866	0.04663887
222	0x3c4f4314	0.01265027
223	0x3ce9895c	0.02850788
224	0x3c25dbcd	0.010123205
225	0xbc1e336f	-0.009655817
226	0x3d5cd8cf	0.053917702
227	0xbc73abd7	-0.014872513
228	0xbd3cff5a	-0.04614196
229	0x3c4baf09	0.012431868
230	0xbba636af	-0.0050724368
231	0xbd2e14c6	-0.04250028
232	0x3d45c119	0.048279855
233	0x3d2c2725	0.04202952
234	0xbd2a8076	-0.041626416
235	0xbd843ca8	-0.06456882
236	0xbd50b9a7	-0.050958302
237	0xbccc57a1	-0.024944128
238	0xbc84f9df	-0.01623243
239	0x3d5d0563	0.053960215
240	0xbd91da90	-0.071217656
241	0xbcc885fa	-0.024477948
242	0x3cb1b57f	0.02169299
243	0x3b4a14ca	0.0030835145
244	0xbcf14945	-0.029453883
245	0xbd0405a9	-0.03223196
246	0xbd691cae	-0.056912117
247	0x3be27704	0.0069111604
248	0xbd127197	-0.03575286
249	0xbccd4aa3	-0.025060004
250	0xbd863f55	-0.065550484
251	0xbbadec93	-0.005307743
252	0x3d231063	0.03981055
253	0x3c7b0464	0.015320871
254	0xbca2a808	-0.019855514
255	0xbcf6cfc7	-0.030128373
